data/npydata/C1-D1.5-W2-P60-N90MJ-2.npy (npy, 187320 bytes, 1 tensors)

array f8 [23399]
00000000: cba1 45b6 f357 84c0 713d 0ad7 2322 a7c0
00000010: b81e 85eb 5142 a7c0 0ad7 a370 3d8a 9bc0
00000020: d7a3 703d 0a15 9040 d7a3 703d 0a22 9f40
00000030: 8fc2 f528 5cd4 a540 f628 5c8f 42a2 a940
00000040: 8fc2 f528 5c74 a340 52b8 1e85 ebc7 9640
00000050: ec51 b81e 05c0 a540 e17a 14ae 07f3 b040
00000060: 85eb 51b8 1e82 ba40 9a99 9999 d9c6 c240
00000070: 9a99 9999 9912 c440 0000 0000 c097 c440
00000080: 0000 0000 40f4 be40 8fc2 f528 5cbc b440
00000090: 6666 6666 e630 b540 cdcc cccc 8c86 b540
000000a0: 0000 0000 c033 b340 9a99 9999 19dd ae40
000000b0: 295c 8fc2 7529 a140 ec51 b81e 85ff 6cc0
000000c0: 8b89 cdc7 b521 0340 f853 e3a5 9b2a 7040
000000d0: 6666 6666 6615 9340 b81e 85eb 515f 9e40
000000e0: cba1 45b6 f3e4 8a40 86c9 54c1 a8ec 55c0
000000f0: 3bdf 4f8d 9733 80c0 643b df4f 8d6e 80c0
00000100: 3d0a d7a3 70da 9740 3d0a d7a3 f05e a740
00000110: 295c 8fc2 75b2 a040 48e1 7a14 ae54 9040
00000120: 7d3f 355e bac6 85c0 54e3 a59b c424 78c0
00000130: ec51 b81e 0537 ad40 a470 3d0a 5771 ba40
00000140: 3d0a d7a3 703a be40 0ad7 a370 3dcc bf40
00000150: e17a 14ae 872b bf40 a470 3d0a 9773 b640
00000160: f628 5c8f c28f 9740 7d3f 355e ba23 8140
00000170: e17a 14ae 4730 9f40 295c 8fc2 f578 9b40
00000180: 6abc 7493 182a 8240 ed0d be30 994a 2ec0
00000190: 7f6a bc74 93ce 76c0 d578 e926 3198 5dc0
000001a0: 2731 08ac 1c0a 7540 21b0 7268 91b4 8ac0
000001b0: ae47 e17a 94ab a2c0 8fc2 f528 5c3f 9dc0
000001c0: 295c 8fc2 f521 91c0 bc22 f8df 4a36 2140
000001d0: 6666 6666 662e 9240 ec51 b81e 8537 a840
000001e0: c3f5 285c cf59 b340 8fc2 f528 9ca2 b540
000001f0: 0000 0000 4069 b740 9a99 9999 59e4 b340
00000200: 48e1 7a14 aef6 ad40 4c37 8941 6057 7e40
00000210: 3d0a d7a3 70c2 9fc0 3d0a d7a3 7015 9dc0
00000220: 8fc2 f528 5c6d 99c0 0000 0000 0076 93c0
00000230: 6abc 7493 18bf 86c0 ff04 172b 6ab0 22c0
00000240: 0456 0e2d b2cd 6d40 9d80 26c2 864f 55c0
00000250: 85eb 51b8 1e9f 7340 ae47 e17a 1476 9540
00000260: 7b14 ae47 6157 a040 14ae 47e1 fa55 a440
00000270: 8fc2 f528 5c67 9940 a1f8 31e6 aee9 52c0
00000280: 6abc 7493 1826 7c40 713d 0ad7 a33f 9b40
00000290: 3d0a d7a3 70ce ae40 a470 3d0a d736 b840
000002a0: 713d 0ad7 233a b640 ae47 e17a 14e7 b240
000002b0: 8fc2 f528 9c3a b740 ae47 e17a 5466 bb40
000002c0: a470 3d0a 977e c140 cdcc cccc 4c11 c540
000002d0: c3f5 285c af25 c240 ec51 b81e 85ad bc40
000002e0: 295c 8fc2 75a0 ae40 8fc2 f528 5cf0 9540
000002f0: f628 5c8f c24c 9340 fed4 78e9 26dc 8640
00000300: c520 b072 6821 80c0 dd24 0681 9534 8ec0
00000310: 1058 39b4 c8c6 61c0 54e3 a59b c418 69c0
00000320: 3d0a d7a3 70a2 92c0 3333 3333 3351 99c0
00000330: c3f5 285c 8f5e 99c0 6666 6666 661d 93c0
00000340: ec51 b81e 85ea 83c0 3333 3333 3363 7040
00000350: 713d 0ad7 a393 9340 295c 8fc2 f565 9b40
00000360: b81e 85eb 5187 a040 0000 0000 00f2 9740
00000370: e17a 14ae 47f7 8840 3d0a d7a3 70dc 9240
00000380: ae47 e17a 146c 9740 508d 976e 129f 8440
00000390: 7f6a bc74 9328 6c40 295c 8fc2 f5f4 9a40
000003a0: 7b14 ae47 6191 ad40 d7a3 703d 0a0b bd40
000003b0: 295c 8fc2 f5b6 c040 85eb 51b8 5ee1 b340
000003c0: c3f5 285c 8f86 9e40 713d 0ad7 a3c0 71c0
000003d0: f853 e3a5 9b13 82c0 f628 5c8f c2d0 8a40
000003e0: 780b 2428 7e1c 34c0 9a99 9999 19a4 a2c0
000003f0: 52b8 1e85 ebfc 9cc0 b762 7fd9 3d39 4fc0
00000400: 4260 e5d0 2223 6ac0 e17a 14ae 474e 8cc0
00000410: 0000 0000 0060 92c0 1f85 eb51 b841 95c0
00000420: e926 3108 ac39 8740 5c8f c2f5 288b a640
00000430: cdcc cccc cc77 a940 cdcc cccc cc83 ac40
00000440: d7a3 703d 8a24 b040 9a99 9999 196f b240
00000450: 5c8f c2f5 6896 b540 5c8f c2f5 a840 b940
00000460: b81e 85eb 51d1 bd40 5c8f c2f5 c81f c140
00000470: 3333 3333 3368 c340 0000 0000 00b0 bd40
00000480: c3f5 285c 0f31 a340 6666 6666 6628 9040
00000490: 713d 0ad7 a3e7 9740 14ae 47e1 7a85 9340
000004a0: 1d5a 643b dfa5 8740 0000 0000 0071 9040
000004b0: ae47 e17a 14ae 9640 713d 0ad7 a3fc 9340
000004c0: 9a99 9999 994b 9240 f628 5c8f 42e1 a040
000004d0: 1f85 eb51 38b2 a540 85eb 51b8 1ef1 9c40
000004e0: 52b8 1e85 ebc7 9040 08ac 1c5a 6488 8640
000004f0: 77be 9f1a 2fb7 8440 ec51 b81e 8578 9040
00000500: 48e1 7a14 ae5a 9440 295c 8fc2 f593 9640
00000510: 85eb 51b8 1e92 a140 48e1 7a14 ae31 aa40
00000520: 0000 0000 40d1 b040 14ae 47e1 faa3 b440
00000530: 713d 0ad7 232f ad40 3d0a d7a3 7095 9640
00000540: 77be 9f1a 2f4a 8140 4a0c 022b 87ca 60c0
00000550: f628 5c8f c201 6e40 14ae 47e1 7ac6 7f40
00000560: e7fb a9f1 d24b 7440 79e9 2631 0876 7040
00000570: 4260 e5d0 2274 8040 e17a 14ae 4786 9040
00000580: b81e 85eb 5108 a040 a470 3d0a d775 a040
00000590: d7a3 703d 0a0b 9140 ae47 e17a 14e2 9340
000005a0: ae47 e17a 14d6 a140 d7a3 703d 0a95 9840
000005b0: 2506 8195 4387 6f40 cdcc cccc cc2a 70c0
000005c0: d122 dbf9 7eec 82c0 f628 5c8f c24c 9540
000005d0: 48e1 7a14 ae5a ac40 a470 3d0a 57d8 b540
000005e0: cdcc cccc 4cc1 bd40 3333 3333 33b0 c340
000005f0: 9a99 9999 99dd c540 3d0a d7a3 f041 c240
00000600: 1f85 eb51 7800 bd40 ec51 b81e c57f b340
00000610: 713d 0ad7 a3fd 9940 6666 6666 669a 9dc0
00000620: 0ad7 a370 3d3f a7c0 713d 0ad7 a34f a6c0
00000630: d7a3 703d 8a85 a3c0 295c 8fc2 f5d4 9fc0
00000640: 295c 8fc2 f5c2 9ec0 0ad7 a370 3dcc 9dc0
00000650: d7a3 703d 0a07 92c0 e5d0 22db f90a 85c0
00000660: 7b14 ae47 e18e 96c0 b81e 85eb 514c 96c0
00000670: 9eef a7c6 4b1d 7740 85eb 51b8 1ea7 9a40
00000680: b81e 85eb d18d a340 14ae 47e1 7a4b a140
00000690: 3333 3333 3321 8d40 ba49 0c02 2baf 7740
000006a0: 91ed 7c3f 35ae 6840 be9f 1a2f ddce 8740
000006b0: 1f85 eb51 b897 9640 295c 8fc2 f5fc 9740
000006c0: cdcc cccc cc8f 9a40 6666 6666 e660 ae40
000006d0: 3333 3333 f34a ba40 3333 3333 73b2 ca40
000006e0: 6666 6666 86eb d240 cdcc cccc ace1 d540
000006f0: 0000 0000 e01f d640 3333 3333 73e4 d240
00000700: 9a99 9999 194e d040 cdcc cccc 0cf2 cb40
00000710: cdcc cccc 4c72 c640 6666 6666 06f9 c040
00000720: f628 5c8f c2a9 b240 05a3 923a 01ad 47c0
00000730: c3f5 285c 8fd4 ac40 ae47 e17a 5439 b840
00000740: c3f5 285c 0f98 ac40 cdcc cccc cc32 9e40
00000750: 5c8f c2f5 a8ca a640 52b8 1e85 6baa a740
00000760: 48e1 7a14 aeaf 9e40 ec51 b81e 8549 9840
00000770: 8fc2 f528 5c64 9940 713d 0ad7 a33b a340
00000780: 3d0a d7a3 f024 ad40 3d0a d7a3 f048 a540
00000790: ae47 e17a 1418 9340 dd24 0681 950d 7640
000007a0: b072 6891 ed6c 6cc0 c3f5 285c 8f94 9e40
000007b0: 7b14 ae47 61bb a940 48e1 7a14 ae59 a040
000007c0: 7b14 ae47 e12f 9040 fed4 78e9 263f 7c40
000007d0: 8fc2 f528 5c83 7d40 9a99 9999 99c9 8f40
000007e0: aaf1 d24d 62e0 8540 3f35 5eba 49cc 4dc0
000007f0: 5c8f c2f5 2851 9ac0 52b8 1e85 ebbe aac0
-650.994 -2961.07 -2977.16 -1762.56 1029.26 1992.51 2794.18 3281.13
2490.18 1457.98 2784.01 4339.03 6786.12 9613.7 10277.2 10543.5
7924.25 5308.36 5424.9 5510.55 4915.75 3950.55 2196.73 -231.985
2.39146 258.663 1221.35 1943.83 860.619 -87.6978 -518.449 -525.819
1526.61 2991.47 2137.23 1045.17 -696.841 -386.298 3739.51 6769.34
7738.44 8140.24 7979.53 5747.59 1507.94 548.466 1996.07 1758.24
581.262 -15.1457 -364.911 -118.378 336.632 -854.571 -2389.79 -1871.84
-1096.49 8.60604 1163.6 3099.76 4953.81 5538.61 5993.25 5092.35
3835.34 485.461 -2032.61 -1861.36 -1627.34 -1245.5 -727.887 -9.34456
238.428 -85.2426 313.945 1373.52 2091.69 2602.99 1625.84 -75.6513
450.381 1743.91 3943.22 6198.84 5690.14 4839.08 5946.61 7014.33
8957.18 10786.6 9291.37 7341.52 3920.23 1404.09 1235.19 731.519
-516.176 -966.573 -142.212 -200.774 -1192.61 -1620.3 -1623.64 -1223.35
-637.315 262.2 1252.91 1753.49 2115.66 1532.5 798.91 1207.11
1499.02 659.884 225.268 1725.24 3784.69 7435.04 8557.92 5089.37
1953.64 -284.04 -578.451 858.095 -20.1113 -2386.05 -1855.23 -62.4472
-209.098 -905.785 -1176.0 -1360.43 743.209 2885.58 3259.9 3649.9
4132.54 4719.1 5526.41 6464.66 7633.32 8767.57 9936.4 7600.0
2456.53 1034.1 1529.91 1249.37 756.734 1052.25 1451.52 1279.16
1170.9 2160.63 2777.11 1852.28 1073.98 721.049 662.898 1054.13
1302.67 1444.99 2249.06 3352.84 4305.25 5283.98 3735.57 1445.36
553.273 -134.329 240.055 508.405 324.739 263.377 526.517 1057.57
2052.16 2106.92 1090.76 1272.52 2283.04 1573.26 252.227 -258.675
-605.562 1363.19 3629.34 5592.34 7617.3 10080.4 11195.2 9347.88
7424.47 4991.77 1663.41 -1894.6 -2975.62 -2855.82 -2498.77 -2037.24
-1968.74 -1907.06 -1153.76 -673.372 -1443.72 -1427.08 369.831 1705.78
2502.91 2213.74 932.15 378.948 197.444 761.858 1445.93 1535.24
1699.95 3888.45 6730.95 13668.9 19374.1 22406.7 22655.5 19345.8
16696.4 14308.1 11492.6 8690.05 4777.76 -47.3516 3690.28 6201.33
3660.03 1932.7 2917.33 3029.21 1963.92 1554.38 1625.09 2461.82
3730.47 2724.47 1222.02 352.849 -227.404 1957.14 3293.69 2092.84
1035.97 451.947 472.21 1017.2 700.048 -59.596 -1684.29 -3423.46
