data/npydata/C1-D1.5-W2-P60-N90MJ-1.npy (npy, 187320 bytes, 1 tensors)

array f8 [23399]
-3028.32 -4985.69 -5577.7 -5326.15 359.053 2298.93 2534.27 1993.08
2177.87 2536.32 3821.11 5539.33 6963.03 7789.37 8101.58 8715.06
7504.49 5776.51 3221.81 1359.76 1083.67 1020.38 2152.01 3702.26
5498.77 6965.58 4920.54 3152.77 3086.89 2798.33 1121.49 -324.684
-145.099 26.5556 111.392 549.068 1763.94 2479.2 2366.04 1913.17
1051.09 590.879 512.194 -17.3673 -984.899 -1246.8 -987.468 -915.928
-946.284 -223.671 858.249 1494.51 1985.69 322.066 -1788.66 -1675.4
-1259.82 -1195.3 -1155.52 -131.214 800.593 43.4291 -594.119 180.748
907.932 1793.3 2020.48 277.049 -671.414 16.3783 480.82 568.69
437.317 28.6602 601.061 2068.65 3200.16 4148.5 5889.6 7982.35
7980.43 7249.38 6047.0 4818.99 5736.24 6916.61 6212.32 5598.36
7364.17 9159.08 9109.99 8488.05 5321.96 2752.13 1673.68 1225.61
2008.36 1409.24 -1315.58 -274.988 4738.92 6055.7 4679.79 2194.28
-779.747 391.644 2884.58 3507.1 3735.19 3563.25 3331.86 1629.17
138.443 448.918 876.09 1826.18 2680.22 3332.14 3650.15 3401.03
3038.36 2558.34 3105.76 4533.85 4676.62 4020.65 2547.15 716.91
1370.42 2753.62 2427.7 1936.41 3332.07 4610.98 3265.59 2392.82
3583.39 4834.82 6140.25 6871.79 6720.33 5369.15 2562.8 1122.98
799.523 1110.43 1768.95 4273.3 7176.89 4977.07 2113.3 2084.06
2138.79 2167.48 2099.25 1576.05 770.573 -725.651 -911.725 895.837
1776.13 1800.97 1082.11 -10.9186 -646.593 -1167.54 -1578.68 -2001.14
-875.861 225.857 -44.1922 -300.413 -560.055 -745.037 -744.176 165.607
2630.29 3963.03 4090.7 3948.51 3626.52 2194.43 411.904 2632.77
5572.27 4446.99 3108.8 3963.96 4405.1 3079.05 1840.45 776.069
-226.449 -1339.25 -881.615 957.525 1124.71 477.956 825.775 1488.72
170.153 -1233.34 -717.355 -142.511 776.32 1351.52 1213.73 1662.22
2984.9 3909.31 4456.79 4431.02 4091.94 2405.93 577.963 3005.44
5958.23 6721.19 8182.01 13231.7 19912.1 30801.3 39433.4 43975.4
38937.2 26494.2 18396.2 12609.1 9290.1 5931.16 6423.17 6856.06
7244.17 7584.63 7722.5 6058.79 2155.1 60.0905 -892.911 -121.696
1607.95 1938.0 1935.26 2138.16 2415.81 3187.84 4190.42 6168.8
7009.97 5805.13 3872.53 1066.93 433.655 932.154 1647.54 2376.42
00000000: 713d 0ad7 a3a8 a7c0 3d0a d7a3 b079 b3c0
00000010: 3333 3333 b3c9 b5c0 6666 6666 26ce b4c0
00000020: 022b 8716 d970 7640 8fc2 f528 dcf5 a140
00000030: d7a3 703d 8acc a340 b81e 85eb 5124 9f40
00000040: 0ad7 a370 bd03 a140 713d 0ad7 a3d0 a340
00000050: 1f85 eb51 38da ad40 ae47 e17a 54a3 b540
00000060: e17a 14ae 0733 bb40 85eb 51b8 5e6d be40
00000070: ae47 e17a 94a5 bf40 e17a 14ae 8705 c140
00000080: 0ad7 a370 7d50 bd40 f628 5c8f 8290 b640
00000090: 85eb 51b8 9e2b a940 d7a3 703d 0a3f 9540
000000a0: 48e1 7a14 aeee 9040 d7a3 703d 0ae3 8f40
000000b0: ec51 b81e 05d0 a040 ec51 b81e 85ec ac40
000000c0: ec51 b81e c57a b540 ae47 e17a 9435 bb40
000000d0: d7a3 703d 8a38 b340 d7a3 703d 8aa1 a840
000000e0: e17a 14ae c71d a840 5c8f c2f5 a8dc a540
000000f0: 295c 8fc2 f585 9140 6de7 fba9 f14a 74c0
00000100: ba49 0c02 2b23 62c0 58a8 35cd 3b8e 3a40
00000110: 0c02 2b87 16d9 5b40 0681 9543 8b28 8140
00000120: f628 5c8f c28f 9b40 6666 6666 665e a340
00000130: ae47 e17a 147c a240 48e1 7a14 aee4 9d40
00000140: 8fc2 f528 5c6c 9040 79e9 2631 0877 8240
00000150: 643b df4f 8d01 8040 20d2 6f5f 075e 31c0
00000160: d578 e926 31c7 8ec0 3333 3333 337b 93c0
00000170: 39b4 c876 bedb 8ec0 8195 438b 6c9f 8cc0
00000180: 83c0 caa1 4592 8dc0 b6f3 fdd4 78f5 6bc0
00000190: a245 b6f3 fdd1 8a40 d7a3 703d 0a5a 9740
000001a0: f628 5c8f c206 9f40 9318 0456 0e21 7440
000001b0: 713d 0ad7 a3f2 9bc0 9a99 9999 992d 9ac0
000001c0: e17a 14ae 47af 93c0 3333 3333 33ad 92c0
000001d0: ae47 e17a 140e 92c0 022b 8716 d966 60c0
000001e0: 39b4 c876 be04 8940 575b b1bf ecb6 4540
000001f0: cba1 45b6 f390 82c0 0e2d b29d ef97 6640
00000200: fa7e 6abc 745f 8c40 3333 3333 3305 9c40
00000210: 52b8 1e85 eb91 9f40 1058 39b4 c850 7140
00000220: 5a64 3bdf 4ffb 84c0 a913 d044 d860 3040
00000230: 85eb 51b8 1e0d 7e40 ec51 b81e 85c5 8140
00000240: 508d 976e 1255 7b40 b7d1 00de 02a9 3c40
00000250: 7368 91ed 7cc8 8240 cdcc cccc 4c29 a040
00000260: b81e 85eb 5100 a940 0000 0000 8034 b040
00000270: 9a99 9999 9901 b740 9a99 9999 592e bf40
00000280: 48e1 7a14 6e2c bf40 7b14 ae47 6151 bc40
00000290: 0000 0000 009f b740 0ad7 a370 fdd2 b240
000002a0: 0ad7 a370 3d68 b640 8fc2 f528 9c04 bb40
000002b0: b81e 85eb 5144 b840 8fc2 f528 5cde b540
000002c0: 52b8 1e85 2bc4 bc40 d7a3 703d 8ae3 c140
000002d0: 85eb 51b8 feca c140 6666 6666 0694 c040
000002e0: 295c 8fc2 f5c9 b440 f628 5c8f 4280 a540
000002f0: 1f85 eb51 b826 9a40 3d0a d7a3 7026 9340
00000300: 3d0a d7a3 7061 9f40 295c 8fc2 f504 9640
00000310: b81e 85eb 518e 94c0 2b87 16d9 ce2f 71c0
00000320: 52b8 1e85 eb82 b240 3333 3333 b3a7 b740
00000330: d7a3 703d ca47 b240 c3f5 285c 8f24 a140
00000340: e5d0 22db f95d 88c0 fca9 f1d2 4d7a 7840
00000350: 5c8f c2f5 2889 a640 3333 3333 3366 ab40
00000360: 7b14 ae47 612e ad40 0000 0000 80d6 ab40
00000370: 1f85 eb51 b807 aa40 48e1 7a14 ae74 9940
00000380: 1904 560e 2d4e 6140 a69b c420 b00e 7c40
00000390: 1f85 eb51 b860 8b40 1f85 eb51 b888 9c40
000003a0: 3d0a d7a3 70f0 a440 e17a 14ae 4708 aa40
000003b0: cdcc cccc 4c84 ac40 c3f5 285c 0f92 aa40
000003c0: 1f85 eb51 b8bc a740 48e1 7a14 aefc a340
000003d0: ec51 b81e 8543 a840 9a99 9999 d9b5 b140
000003e0: 85eb 51b8 9e44 b240 cdcc cccc 4c69 af40
000003f0: cdcc cccc 4ce6 a340 e17a 14ae 4767 8640
00000400: 48e1 7a14 ae69 9540 0ad7 a370 3d83 a540
00000410: 6666 6666 66f7 a240 713d 0ad7 a341 9e40
00000420: 713d 0ad7 2308 aa40 14ae 47e1 fa02 b240
00000430: 48e1 7a14 2e83 a940 713d 0ad7 a3b1 a240
00000440: e17a 14ae c7fe ab40 b81e 85eb d1e2 b240
00000450: 0000 0000 40fc b740 d7a3 703d cad7 ba40
00000460: ae47 e17a 5440 ba40 6666 6666 26f9 b440
00000470: 9a99 9999 9905 a440 52b8 1e85 eb8b 9140
00000480: 77be 9f1a 2ffc 8840 1f85 eb51 b859 9140
00000490: cdcc cccc cca3 9b40 cdcc cccc 4cb1 b040
000004a0: 713d 0ad7 e308 bc40 b81e 85eb 1171 b340
000004b0: 9a99 9999 9982 a040 85eb 51b8 1e48 a040
000004c0: ae47 e17a 94b5 a040 295c 8fc2 f5ee a040
000004d0: 0000 0000 8066 a040 3333 3333 33a0 9840
000004e0: dd24 0681 9514 8840 91ed 7c3f 35ad 86c0
000004f0: cdcc cccc cc7d 8cc0 0456 0e2d b2fe 8b40
00000500: ec51 b81e 85c0 9b40 7b14 ae47 e123 9c40
00000510: 3d0a d7a3 70e8 9040 1136 3cbd 52d6 25c0
00000520: 39b4 c876 be34 84c0 5c8f c2f5 283e 92c0
00000530: 1f85 eb51 b8aa 98c0 c3f5 285c 8f44 9fc0
00000540: d9ce f753 e35e 8bc0 8195 438b 6c3b 6c40
00000550: 4625 7502 9a18 46c0 f853 e3a5 9bc6 72c0
00000560: 3d0a d7a3 7080 81c0 9eef a7c6 4b48 87c0
00000570: c520 b072 6841 87c0 8195 438b 6cb3 6440
00000580: ae47 e17a 948c a440 c3f5 285c 0ff6 ae40
00000590: 6666 6666 66f5 af40 ec51 b81e 05d9 ae40
000005a0: d7a3 703d 0a55 ac40 8fc2 f528 dc24 a140
000005b0: 5839 b4c8 76be 7940 d7a3 703d 8a91 a440
000005c0: ec51 b81e 45c4 b540 0ad7 a370 fd5e b140
000005d0: 9a99 9999 9949 a840 52b8 1e85 ebf7 ae40
000005e0: 9a99 9999 1935 b140 9a99 9999 190e a840
000005f0: cdcc cccc ccc1 9c40 643b df4f 8d40 8840
00000600: ee7c 3f35 5e4e 6cc0 0000 0000 00ed 94c0
00000610: 52b8 1e85 eb8c 8bc0 3333 3333 33ec 8d40
00000620: a470 3d0a d792 9140 9eef a7c6 4bdf 7d40
00000630: 3333 3333 33ce 8940 7b14 ae47 e142 9740
00000640: 3789 4160 e544 6540 8fc2 f528 5c45 93c0
00000650: a470 3d0a d76a 86c0 3108 ac1c 5ad0 61c0
00000660: c3f5 285c 8f42 8840 ae47 e17a 141e 9540
00000670: 52b8 1e85 ebf6 9240 7b14 ae47 e1f8 9940
00000680: cdcc cccc cc51 a740 85eb 51b8 9e8a ae40
00000690: d7a3 703d ca68 b140 ec51 b81e 054f b140
000006a0: 7b14 ae47 e1f7 af40 8fc2 f528 dccb a240
000006b0: 6210 5839 b40f 8240 7b14 ae47 e17a a740
000006c0: 14ae 47e1 3a46 b740 3d0a d7a3 3041 ba40
000006d0: f628 5c8f 02f6 bf40 9a99 9999 d9d7 c940
000006e0: 6666 6666 0672 d340 3333 3333 5314 de40
000006f0: cdcc cccc 2c41 e340 cdcc cccc ec78 e540
00000700: 6666 6666 2603 e340 cdcc cccc 8cdf d940
00000710: cdcc cccc 0cf7 d140 cdcc cccc 8ca0 c840
00000720: cdcc cccc 0c25 c240 5c8f c2f5 282b b740
00000730: 52b8 1e85 2b17 b940 c3f5 285c 0fc8 ba40
00000740: 52b8 1e85 2b4c bc40 7b14 ae47 a1a0 bd40
00000750: 0000 0000 802a be40 d7a3 703d caaa b740
00000760: 3333 3333 33d6 a040 dd24 0681 950b 4e40
00000770: 3f35 5eba 49e7 8bc0 0681 9543 8b6c 5ec0
00000780: cdcc cccc cc1f 9940 0000 0000 0048 9e40
00000790: d7a3 703d 0a3d 9e40 b81e 85eb 51b4 a040
000007a0: 85eb 51b8 9edf a240 48e1 7a14 aee7 a840
000007b0: 52b8 1e85 6b5e b040 cdcc cccc cc18 b840
000007c0: 1f85 eb51 f861 bb40 7b14 ae47 21ad b640
000007d0: c3f5 285c 0f41 ae40 1f85 eb51 b8ab 9040
000007e0: 14ae 47e1 7a1a 7b40 ac1c 5a64 3b21 8d40
000007f0: 5c8f c2f5 28be 9940 a470 3d0a d790 a240
