data/npydata/C10-D1.5-W2-P60-N90MJ-2.npy (npy, 187320 bytes, 1 tensors)

array f8 [23399]
0	0x40b9c6b5c28f5c29	6598.71
1	0xc06b0d5810624dd3	-216.417
2	0xc0a03abd70a3d70a	-2077.37
3	0xc08d23020c49ba5e	-932.376
4	0xc087454bc6a7ef9e	-744.662
5	0xc09138ae147ae148	-1102.17
6	0xc054c74f0d844d01	-83.1142
7	0x40943347ae147ae1	1292.82
8	0x407308e978d4fdf4	304.557
9	0xc094f9e147ae147b	-1342.47
10	0xc0811249ba5e353f	-546.286
11	0x4081ba24dd2f1aa0	567.268
12	0x40696cf5c28f5c29	203.405
13	0xc05e049ba5e353f8	-120.072
14	0xc05411cac083126f	-80.278
15	0xc0737ed4fdf3b646	-311.927
16	0xc04476631f8a0903	-40.9249
17	0x407df4b851eb851f	479.295
18	0x408d878f5c28f5c3	944.945
19	0x40967d0000000000	1439.25
20	0x409a61f5c28f5c29	1688.49
21	0x4097d6ae147ae148	1525.67
22	0x4084a5c28f5c28f6	660.72
23	0x409eb50000000000	1965.25
24	0x40a0c7d70a3d70a4	2147.92
25	0x40a18ef5c28f5c29	2247.48
26	0x409130b851eb851f	1100.18
27	0x405fd6a7ef9db22d	127.354
28	0x4071a80c49ba5e35	282.503
29	0x4079d66a7ef9db23	413.401
30	0x407b7db22d0e5604	439.856
31	0x4081aa4fdf3b645a	565.289
32	0x40919f6666666666	1127.85
33	0x4098540000000000	1557.0
34	0x409641147ae147ae	1424.27
35	0x40992acccccccccd	1610.7
36	0x40a3460f5c28f5c3	2467.03
37	0x40a9353333333333	3226.6
38	0x40ae810000000000	3904.5
39	0x40ae54851eb851ec	3882.26
40	0x40a664d70a3d70a4	2866.42
41	0x409e3d0000000000	1935.25
42	0x408f5deb851eb852	1003.74
43	0x409398851eb851ec	1254.13
44	0x40a48975c28f5c29	2628.73
45	0x40a86f2e147ae148	3127.59
46	0x40a731bd70a3d70a	2968.87
47	0x409f261eb851eb85	1993.53
48	0x4080d8b020c49ba6	539.086
49	0xc04199c0ebedfa44	-35.2012
50	0xc06c5c3126e978d5	-226.881
51	0x40642d26e978d4fe	161.411
52	0x40879351eb851eb8	754.415
53	0x4098e45c28f5c28f	1593.09
54	0x40a33db333333333	2462.85
55	0x409145e147ae147b	1105.47
56	0xc07e953f7ced9168	-489.328
57	0xc075b7d70a3d70a4	-347.49
58	0xc052319652bd3c36	-72.7748
59	0xc07670e147ae147b	-359.055
60	0xc0825c999999999a	-587.575
61	0x4072fe45a1cac083	303.892
62	0x40907651eb851eb8	1053.58
63	0x4060b4ac083126e9	133.646
64	0xc07ab0b851eb851f	-427.045
65	0x406c8b4bc6a7ef9e	228.353
66	0x4081f9645a1cac08	575.174
67	0xc0374c432ca57a78	-23.2979
68	0xc07c1a28f5c28f5c	-449.635
69	0xc080b7f1a9fbe76d	-534.993
70	0xc080366666666666	-518.8
71	0xc07535851eb851ec	-339.345
72	0xc059c6c8b4395810	-103.106
73	0x406ac2d916872b02	214.089
74	0x40910df5c28f5c29	1091.49
75	0x40a339051eb851ec	2460.51
76	0x40a8a328f5c28f5c	3153.58
77	0x40aa93c28f5c28f6	3401.88
78	0x40a4806b851eb852	2624.21
79	0x409518ae147ae148	1350.17
80	0x40a8a347ae147ae1	3153.64
81	0x40b7714ccccccccd	6001.3
82	0x40b43f2e147ae148	5183.18
83	0x40ac45d70a3d70a4	3618.92
84	0x40a157bd70a3d70a	2219.87
85	0x408a82810624dd2f	848.313
86	0x4092ab7ae147ae14	1194.87
87	0x40986b28f5c28f5c	1562.79
88	0x409e18e147ae147b	1926.22
89	0x40a32e199999999a	2455.05
90	0x40af6f8f5c28f5c3	4023.78
91	0x40b5963d70a3d70a	5526.24
92	0x40b7fdf851eb851f	6141.97
93	0x40b6fdc000000000	5885.75
94	0x40a90e6666666666	3207.2
95	0x408f933333333333	1010.4
96	0xc07d7c7ef9db22d1	-471.781
97	0xc08803872b020c4a	-768.441
98	0x40893dced916872b	807.726
99	0x40982d8f5c28f5c3	1547.39
100	0x4095cfeb851eb852	1395.98
101	0x408003b851eb851f	512.465
102	0xc08a21e978d4fdf4	-836.239
103	0xc05475d495182a99	-81.8411
104	0x4099f7147ae147ae	1661.77
105	0x409d296666666666	1866.35
106	0x409895999999999a	1573.4
107	0x409e50147ae147ae	1940.02
108	0x40a2a1b333333333	2384.85
109	0x40989e70a3d70a3d	1575.61
110	0x40818dbe76c8b439	561.718
111	0x4080d16872b020c5	538.176
112	0x40823f147ae147ae	583.885
113	0x40954bb851eb851f	1362.93
114	0x409b6f8f5c28f5c3	1755.89
115	0x4072fd1a9fbe76c9	303.819
116	0xc078c1999999999a	-396.1
117	0x408a36e147ae147b	838.86
118	0x40970c6666666666	1475.1
119	0x4091570000000000	1109.75
120	0x40909b6666666666	1062.85
121	0x409735999999999a	1485.4
122	0x4097b3f5c28f5c29	1516.99
123	0x4092c6c28f5c28f6	1201.69
124	0x4095b4cccccccccd	1389.2
125	0x409daee147ae147b	1899.72
126	0x40a3c8f0a3d70a3d	2532.47
127	0x40a92575c28f5c29	3218.73
128	0x40a031ae147ae148	2072.84
129	0x40760a9ba5e353f8	352.663
130	0xc0581adc5d638866	-96.4197
131	0xc074efb22d0e5604	-334.981
132	0x40796922d0e56042	406.571
133	0x4092875c28f5c28f	1185.84
134	0x4098a2cccccccccd	1576.7
135	0x409ffeb851eb851f	2047.68
136	0x40a6b0051eb851ec	2904.01
137	0x40ac408f5c28f5c3	3616.28
138	0x40ae70051eb851ec	3896.01
139	0x40b208147ae147ae	4616.08
140	0x40b79f428f5c28f6	6047.26
141	0x40ba32051eb851ec	6706.02
142	0x40b97f4f5c28f5c3	6527.31
143	0x40b17e851eb851ec	4478.52
144	0x408d5d10624dd2f2	939.633
145	0xc0391b98c7e28241	-25.1078
146	0x40751da5e353f7cf	337.853
147	0xc07b65f3b645a1cb	-438.372
148	0xc09783f5c28f5c29	-1504.99
149	0xc0928d999999999a	-1187.4
150	0xc0855095810624dd	-682.073
151	0xc09e5c999999999a	-1943.15
152	0xc0a8366b851eb852	-3099.21
153	0xc0992c3d70a3d70a	-1611.06
154	0xc07b1ec083126e98	-433.922
155	0xc077e3a1cac08312	-382.227
156	0xc074e72f1a9fbe77	-334.449
157	0xc072b8c083126e98	-299.547
158	0xc08009810624dd2f	-513.188
159	0xc091116666666666	-1092.35
160	0xc099197ae147ae14	-1606.37
161	0xc0a0e3bd70a3d70a	-2161.87
162	0xc09aa8ae147ae148	-1706.17
163	0xc083e372b020c49c	-636.431
164	0xc046fb6ae7d566cf	-45.9642
165	0x407a1b78d4fdf3b6	417.717
166	0xc07af47ef9db22d1	-431.281
167	0xc09a16ae147ae148	-1669.67
168	0xc0988047ae147ae1	-1568.07
169	0xc0957847ae147ae1	-1374.07
170	0xc091665c28f5c28f	-1113.59
171	0xc08b50147ae147ae	-874.01
172	0xc084f77ef9db22d1	-670.937
173	0xc08094d916872b02	-530.606
174	0xc0811dbc6a7ef9db	-547.717
175	0xc06596e978d4fdf4	-172.716
176	0x408b45c6a7ef9db2	872.722
177	0x408f5f1eb851eb85	1003.89
178	0x40589e48e8a71de7	98.4732
179	0xc07ce795810624dd	-462.474
180	0xc08739624dd2f1aa	-743.173
181	0xc08d1e4395810625	-931.783
182	0xc090d5c28f5c28f6	-1077.44
183	0xc09d9128f5c28f5c	-1892.29
184	0xc0a6056147ae147b	-2818.69
185	0xc06f31999999999a	-249.55
186	0x40a359dc28f5c28f	2476.93
187	0x4088526a7ef9db23	778.302
188	0xc0841e3333333333	-643.775
189	0xc08e989ba5e353f8	-979.076
190	0xc085135e353f7cee	-674.421
191	0x409063851eb851ec	1048.88
192	0x409df747ae147ae1	1917.82
193	0x4099e8851eb851ec	1658.13
194	0x407030624dd2f1aa	259.024
195	0xc09e70c28f5c28f6	-1948.19
196	0xc0a285147ae147ae	-2370.54
197	0xc09e15cccccccccd	-1925.45
198	0xc0a05d23d70a3d71	-2094.57
199	0xc0a32ad70a3d70a4	-2453.42
200	0xc0a211051eb851ec	-2312.51
201	0xc0a05a947ae147ae	-2093.29
202	0xc0916ba3d70a3d71	-1114.91
203	0xc06ff5e353f7ced9	-255.684
204	0x4060100000000000	128.5
205	0x40738f374bc6a7f0	312.951
206	0x40509a29c779a6b5	66.4088
207	0xc06abb645a1cac08	-213.856
208	0xc081b63f7ced9168	-566.781
209	0xc090178f5c28f5c3	-1029.89
210	0xc098d0a3d70a3d71	-1588.16
211	0xc09ace47ae147ae1	-1715.57
212	0xc099386666666666	-1614.1
213	0xc078a90e56041893	-394.566
214	0x408e166872b020c5	962.801
215	0x4089e05810624dd3	828.043
216	0x4081de083126e979	571.754
217	0x4087ed6e978d4fdf	765.679
218	0x4092e3f5c28f5c29	1208.99
219	0x40a69f428f5c28f6	2895.63
220	0x40af1651eb851eb8	3979.16
221	0x40acb4b851eb851f	3674.36
222	0x40b580b5c28f5c29	5504.71
223	0x40c317c51eb851ec	9775.54
224	0x40ccdab333333333	14773.4
225	0x40d43b6666666666	20717.6
226	0x40d0120666666666	16456.1
227	0x40c03d7eb851eb85	8314.99
228	0x40bfcb30a3d70a3d	8139.19
229	0x40c2d887ae147ae1	9649.06
230	0x40b4208a3d70a3d7	5152.54
231	0x409e1f7ae147ae14	1927.87
232	0x40a89a051eb851ec	3149.01
233	0x40aecf23d70a3d71	3943.57
234	0x40aa12051eb851ec	3337.01
235	0x409d10f5c28f5c29	1860.24
236	0xc083b7e147ae147b	-630.985
237	0xc096fda3d70a3d71	-1471.41
238	0xc090aba3d70a3d71	-1066.91
239	0xc087ebe147ae147b	-765.485
240	0xc08028810624dd2f	-517.063
241	0x405dba0c49ba5e35	118.907
242	0x4089d0ba5e353f7d	826.091
243	0xc07f191a9fbe76c9	-497.569
244	0xc09c7e851eb851ec	-1823.63
245	0xc09988eb851eb852	-1634.23
246	0xc092a26666666666	-1192.6
247	0x40666ad0e5604189	179.338
248	0x408c7b53f7ced917	911.416
249	0x407b21916872b021	434.098
250	0x40637f8d4fdf3b64	155.986
251	0x402dbd63886594af	14.8699
252	0xc0781804189374bc	-385.501
253	0xc08c9ac28f5c28f6	-915.345
254	0xc0719a0c49ba5e35	-281.628
255	0x408234fdf3b645a2	582.624
