data/npydata/C12-D1.5-W2-P60-N90MJ-3.npy (npy, 187320 bytes, 1 tensors)

array f8 [23399]
00000000: 9cc4 20b0 723a 78c0 b81e 85eb d1ba b2c0
00000010: 3333 3333 f3a6 b3c0 6666 6666 e65b a7c0
00000020: 2731 08ac 1ccd 82c0 54e3 a59b c47c 7b40
00000030: 14ae 47e1 7a9f 9840 b81e 85eb 514a a140
00000040: 14ae 47e1 7a49 9340 4694 f606 5f08 4ac0
00000050: a470 3d0a d7cb 63c0 7f6a bc74 932c 74c0
00000060: 295c 8fc2 f524 9140 7b14 ae47 e188 ac40
00000070: 3d0a d7a3 f08c ad40 5c8f c2f5 a8da a740
00000080: 85eb 51b8 1ed0 b040 6666 6666 a6b2 b640
00000090: 7b14 ae47 e163 b340 c3f5 285c 8f2e ac40
000000a0: 52b8 1e85 eb1b a640 b81e 85eb 511b 9a40
000000b0: a857 ca32 c4c1 3640 295c 8fc2 75cf a540
000000c0: f628 5c8f c2cb 9740 23db f97e 6ada 7440
000000d0: 14ae 47e1 7a99 91c0 ae47 e17a 1453 a2c0
000000e0: c3f5 285c 8f93 9ec0 ae47 e17a 14c2 99c0
000000f0: 1f85 eb51 b8e7 9ac0 5c8f c2f5 2822 9dc0
00000100: 9a99 9999 19eb a1c0 85eb 51b8 1e02 a2c0
00000110: cdcc cccc cc53 90c0 b072 6891 ed50 6140
00000120: 295c 8fc2 f52d 9540 ec51 b81e 85ce 9e40
00000130: 6666 6666 6662 9840 e17a 14ae 4754 9f40
00000140: d7a3 703d 8a15 ac40 295c 8fc2 75c1 b040
00000150: 0000 0000 8006 b040 d7a3 703d 0a34 aa40
00000160: 14ae 47e1 7a14 a040 3d0a d7a3 f0a1 ab40
00000170: 9a99 9999 99fe ba40 d7a3 703d 4a35 b840
00000180: 3333 3333 b305 a940 3d0a d7a3 7009 9540
00000190: 10e9 b7af 0367 46c0 adfa 5c6d c516 4840
000001a0: 0e2d b29d ef69 8440 d578 e926 31ff 8140
000001b0: 3789 4160 e572 7540 f628 5c8f c237 92c0
000001c0: 14ae 47e1 7aa9 a5c0 52b8 1e85 ebc8 9dc0
000001d0: d578 e926 311a 8ac0 0ad7 a370 3d9a 9ac0
000001e0: 85eb 51b8 9ec3 a2c0 1b2f dd24 06f1 6840
000001f0: a470 3d0a 570a a240 46b6 f3fd d438 8fc0
00000200: 9a99 9999 99e8 a9c0 295c 8fc2 75bf a4c0
00000210: e17a 14ae c7c8 a0c0 5c8f c2f5 a8b8 a0c0
00000220: 713d 0ad7 a316 9ec0 f628 5c8f c2a7 93c0
00000230: 0ad7 a370 3d5a 91c0 d7a3 703d 0a3f 9cc0
00000240: 6666 6666 e687 a0c0 3d0a d7a3 7092 9ec0
00000250: 713d 0ad7 a344 a2c0 f628 5c8f c216 a9c0
00000260: 52b8 1e85 ebb2 aac0 0ad7 a370 3db3 a8c0
00000270: cdcc cccc cc62 a1c0 d7a3 703d 0a5e 8ec0
00000280: cdcc cccc cce4 93c0 7b14 ae47 e17e a0c0
00000290: ec51 b81e 858d 9dc0 ec51 b81e 85bb 96c0
000002a0: 1283 c0ca a1e9 7e40 14ae 47e1 7a7e a440
000002b0: 3d0a d7a3 70d2 9540 3333 3333 338f 6f40
000002c0: 1b2f dd24 06c6 8b40 1f85 eb51 b8cd 9b40
000002d0: 3333 3333 b351 b040 295c 8fc2 7555 b740
000002e0: 6666 6666 a64b b040 85eb 51b8 9e31 a940
000002f0: a470 3d0a 17e5 b140 0000 0000 c0c1 b140
00000300: a470 3d0a d711 9a40 aaf1 d24d 6248 68c0
00000310: 6f12 83c0 ca49 76c0 ec51 b81e 856c 81c0
00000320: 7b14 ae47 e1ec 88c0 a01a 2fdd 2475 84c0
00000330: 5839 b4c8 762a 6fc0 986e 1283 c0d2 7640
00000340: 1f85 eb51 b8b5 9040 cdcc cccc ccab 9240
00000350: 6666 6666 66b3 9140 a470 3d0a d7a4 9e40
00000360: ae47 e17a 1459 a640 a470 3d0a d7e1 a940
00000370: e17a 14ae c779 ad40 3333 3333 b352 ab40
00000380: 85eb 51b8 1eb6 a840 d7a3 703d 8a9c a040
00000390: 986e 1283 c08f 8e40 7f6a bc74 9377 83c0
000003a0: 48e1 7a14 ae81 98c0 c976 be9f 1a7c 8ac0
000003b0: 5a64 3bdf 4fcd 61c0 7f6a bc74 93c1 8540
000003c0: 6abc 7493 18a6 8240 4e62 1058 39b1 8ac0
000003d0: f628 5c8f c2c1 99c0 52b8 1e85 eb7e 9cc0
000003e0: 0ad7 a370 3da8 a1c0 52b8 1e85 eb7d a6c0
000003f0: 5c8f c2f5 284e a0c0 6abc 7493 1843 85c0
00000400: d8d8 25aa b786 12c0 83c0 caa1 4578 7f40
00000410: 48e1 7a14 ae0c 9140 85eb 51b8 1e38 9940
00000420: 3f35 5eba 494e 8040 ec51 b81e 850f 83c0
00000430: ae47 e17a 1442 8fc0 fa7e 6abc 747c 8ec0
00000440: cba1 45b6 f354 8c40 b81e 85eb d17a a540
00000450: d7a3 703d 4af1 b040 3333 3333 f3c4 b240
00000460: 9a99 9999 9987 ab40 48e1 7a14 ae3f a940
00000470: c3f5 285c 8fa0 af40 3333 3333 3364 ae40
00000480: 713d 0ad7 a305 a740 0000 0000 0071 a040
00000490: b81e 85eb 5111 9440 9a99 9999 9935 9840
000004a0: 3d0a d7a3 708c a040 14ae 47e1 7a25 9540
000004b0: 4c37 8941 6043 7a40 295c 8fc2 752e a040
000004c0: cdcc cccc 4c0b ad40 9a99 9999 19d1 aa40
000004d0: ec51 b81e 85cb a740 e17a 14ae 4774 a040
000004e0: 9a99 9999 995b 9a40 5c8f c2f5 a8ae a440
000004f0: d7a3 703d 8a5d a440 b81e 85eb 5171 9040
00000500: 1b2f dd24 0649 8640 295c 8fc2 f537 9a40
00000510: 3d0a d7a3 7033 9f40 e17a 14ae 4721 9c40
00000520: 8fc2 f528 5c95 8f40 645d dc46 03e4 50c0
00000530: 7f6a bc74 9300 5dc0 d656 ec2f bbff 5240
00000540: 8941 60e5 d082 7940 7f6a bc74 9375 8440
00000550: c1ca a145 b690 85c0 713d 0ad7 a397 9ac0
00000560: 5c8f c2f5 28f8 94c0 54e3 a59b c42d 8bc0
00000570: a245 b6f3 fd9c 4bc0 17d9 cef7 531c 8140
00000580: dd24 0681 9522 8940 c1ca a145 b679 8b40
00000590: ba49 0c02 2b79 8740 5eba 490c 02d3 6b40
000005a0: 6666 6666 6638 81c0 40a4 dfbe 0e1c 48c0
000005b0: a470 3d0a d769 8c40 ec51 b81e 85a5 9340
000005c0: 14ae 47e1 7a2b 9740 3333 3333 b32e a440
000005d0: cdcc cccc cca5 ac40 0000 0000 00e2 a040
000005e0: 022b 8716 d9f9 8940 b4c8 76be 9fce 6340
000005f0: d578 e926 3170 51c0 e17a 14ae 4746 8540
00000600: b29d efa7 c65d 8740 ee7c 3f35 5e1a 6bc0
00000610: 3333 3333 33fc 91c0 a470 3d0a d77b 9dc0
00000620: 48e1 7a14 aee9 92c0 d34d 6210 58d5 6340
00000630: 13f2 41cf 66c1 58c0 8941 60e5 d036 8ac0
00000640: c3f5 285c 8f7d 9dc0 3333 3333 b329 a6c0
00000650: 6666 6666 66f5 91c0 a470 3d0a d77f 6b40
00000660: 3bdf 4f8d 9776 6b40 ac1c 5a64 3b69 7ac0
00000670: 5c8f c2f5 2835 a4c0 8fc2 f528 5cb0 a7c0
00000680: 6666 6666 66b9 90c0 d0d5 56ec 2fe3 5540
00000690: 4c37 8941 60d9 7e40 9643 8b6c e737 6a40
000006a0: cdcc cccc cce8 7cc0 2db2 9def a75e 7040
000006b0: 713d 0ad7 a37d 9340 cdcc cccc cc52 9240
000006c0: a8c6 4b37 898e 8e40 54e3 a59b c422 7e40
000006d0: 3333 3333 3363 7d40 48e1 7a14 ae08 a340
000006e0: 9a99 9999 99ad b440 cdcc cccc 8c56 c440
000006f0: 6666 6666 6667 cb40 cdcc cccc 8cbf cd40
00000700: cdcc cccc 4cb3 d040 0000 0000 e027 d340
00000710: 0000 0000 c08a cf40 0000 0000 4075 c440
00000720: 9a99 9999 5969 c440 3333 3333 33bc c640
00000730: 14ae 47e1 ba5e b140 c3f5 285c 8f9c 7ac0
00000740: e17a 14ae c7c5 ad40 713d 0ad7 6367 b740
00000750: ec51 b81e 85df 9a40 8941 60e5 d0d8 7dc0
00000760: 52b8 1e85 ebc1 7340 f4fd d478 e9a6 82c0
00000770: 9a99 9999 997b a8c0 5c8f c2f5 a8f2 a6c0
00000780: 713d 0ad7 a348 93c0 4260 e5d0 2213 8a40
00000790: 713d 0ad7 a3df a640 52b8 1e85 eb6e 9f40
000007a0: c976 be9f 1a54 8c40 6abc 7493 18b8 61c0
000007b0: 3d0a d7a3 708f 8fc0 85eb 51b8 1ed6 96c0
000007c0: 8fc2 f528 5c4c 99c0 8fc2 f528 5cb4 93c0
000007d0: 3333 3333 3383 93c0 f628 5c8f c2f6 97c0
000007e0: fca9 f1d2 4d14 86c0 2fdd 2406 8173 8540
000007f0: dd24 0681 9522 8340 713d 0ad7 a378 6a40
-387.653 -4794.82 -5030.95 -2989.95 -601.639 439.798 1575.87 2213.16
1234.37 -52.0654 -158.37 -322.786 1097.24 3652.44 3782.47 3053.33
4304.12 5810.65 4963.88 3607.28 2829.96 1670.83 22.7569 2791.73
1522.94 333.651 -1126.37 -2345.54 -1956.89 -1648.52 -1721.93 -1864.54
-2293.55 -2305.06 -1044.95 138.529 1355.49 1971.63 1560.6 2005.07
3594.77 4289.46 4102.5 3354.02 2058.24 3536.97 6910.6 6197.29
3202.85 1346.36 -44.8048 48.1779 653.242 575.899 343.181 -1165.94
-2772.74 -1906.23 -835.274 -1702.56 -2401.81 199.532 2309.17 -999.104
-3316.3 -2655.73 -2148.39 -2140.33 -1925.66 -1257.94 -1110.56 -1807.76
-2115.95 -1956.61 -2338.32 -3211.38 -3417.46 -3161.62 -2225.4 -971.755
-1273.2 -2111.44 -1891.38 -1454.88 494.602 2623.24 1396.61 252.475
888.753 1779.43 4177.7 5973.46 4171.65 3224.81 4581.09 4545.75
1668.46 -194.262 -356.612 -557.565 -797.61 -654.643 -249.327 365.172
1069.43 1194.95 1132.85 1961.21 2860.54 3312.92 3772.89 3497.35
3163.06 2126.27 977.969 -622.947 -1568.42 -847.513 -142.416 696.197
596.762 -854.153 -1648.44 -1823.73 -2260.12 -2878.96 -2087.08 -680.387
-4.63156 503.517 1091.17 1614.03 521.786 -609.94 -1000.26 -975.557
906.619 2749.41 4337.29 4804.95 3523.8 3231.84 4048.28 3890.1
2946.82 2104.5 1284.33 1549.4 2118.22 1353.37 420.211 2071.23
3717.65 3432.55 3045.76 2106.14 1686.9 2647.33 2606.77 1052.33
713.128 1677.99 1996.86 1800.32 1010.67 -67.5627 -116.009 75.9958
408.176 654.697 -690.089 -1701.91 -1342.04 -869.721 -55.2265 547.541
804.323 879.214 751.146 222.594 -551.05 -48.2192 909.23 1257.38
1482.87 2583.35 3666.9 2161.0 831.231 158.457 -69.753 680.785
747.722 -216.824 -1151.05 -1886.96 -1210.42 158.667 -99.0219 -838.852
-1887.39 -2836.85 -1149.35 219.995 219.706 -422.577 -2586.58 -3032.18
-1070.35 87.5498 493.586 209.747 -462.55 261.916 1247.41 1172.7
977.817 482.173 470.2 2436.34 5293.6 10413.1 14030.8 15231.1
17101.2 19615.5 16149.5 10474.5 10450.7 11640.4 4446.73 -425.785
3810.89 5991.39 1719.88 -477.551 316.12 -596.864 -3133.8 -2937.33
-1234.16 834.392 2927.82 2011.73 906.513 -141.753 -1009.93 -1461.53
-1619.09 -1261.09 -1248.8 -1533.69 -706.538 686.438 612.323 211.77
