data/npydata/C12-D1.5-W2-P60-N90MJ-2.npy (npy, 187320 bytes, 1 tensors)

array f8 [23399]
000000 d7 a3 70 3d 0a a2 a1 c0 85 eb 51 b8 1e 2e 93 c0
       -2257.02 -1227.53
000010 0a d7 a3 70 3d 0e 90 c0 66 66 66 66 66 76 94 c0
       -1027.56 -1309.6
000020 52 b8 1e 85 eb c5 9b 40 29 5c 8f c2 f5 fa 97 40
       1777.48 1534.74
000030 14 ae 47 e1 7a 27 9a 40 29 5c 8f c2 75 ca a0 40
       1673.87 2149.23
000040 5c 8f c2 f5 28 62 a0 40 cd cc cc cc cc 7c 9b 40
       2097.08 1759.2
000050 1f 85 eb 51 b8 61 9b 40 00 00 00 00 00 09 9b 40
       1752.43 1730.25
000060 ae 47 e1 7a 14 52 99 40 5c 8f c2 f5 28 de 9f 40
       1620.52 2039.54
000070 e1 7a 14 ae 87 73 b0 40 9a 99 99 99 d9 8a b9 40
       4211.53 6538.85
000080 f6 28 5c 8f 02 02 be 40 66 66 66 66 66 e0 be 40
       7682.01 7904.4
000090 cd cc cc cc 0c f0 b1 40 c3 f5 28 5c 8f 5b a2 40
       4592.05 2349.78
0000a0 85 eb 51 b8 9e a0 a9 40 f6 28 5c 8f 42 2a af 40
       3280.31 3989.13
0000b0 5c 8f c2 f5 e8 f8 b2 40 b8 1e 85 eb 51 2d b4 40
       4856.91 5165.32
0000c0 c3 f5 28 5c 4f 22 b6 40 ae 47 e1 7a 14 97 b7 40
       5666.31 6039.08
0000d0 cd cc cc cc cc ad b2 40 9a 99 99 99 19 92 ac 40
       4781.8 3657.05
0000e0 5c 8f c2 f5 28 3e a9 40 c3 f5 28 5c 0f c8 a7 40
       3231.08 3044.03
0000f0 85 eb 51 b8 9e 6b b0 40 3d 0a d7 a3 30 ba b3 40
       4203.62 5050.19
000100 71 3d 0a d7 23 e0 af 40 29 5c 8f c2 75 8e a8 40
       4080.07 3143.23
000110 14 ae 47 e1 7a b3 a4 40 e1 7a 14 ae c7 43 a5 40
       2649.74 2721.89
000120 1f 85 eb 51 b8 c8 ae 40 48 e1 7a 14 6e fe b4 40
       3940.36 5374.43
000130 71 3d 0a d7 e3 da bc 40 71 3d 0a d7 e3 d3 be 40
       7386.89 7891.89
000140 71 3d 0a d7 63 16 b8 40 1f 85 eb 51 78 de b2 40
       6166.39 4830.47
000150 5c 8f c2 f5 a8 84 ad 40 9a 99 99 99 99 13 a7 40
       3778.33 2953.8
000160 66 66 66 66 e6 2e a2 40 7b 14 ae 47 e1 f7 9f 40
       2327.45 2045.97
000170 cd cc cc cc cc b2 9f 40 48 e1 7a 14 ae 32 96 40
       2028.7 1420.67
000180 7f 6a bc 74 93 4c 7d 40 14 ae 47 e1 7a 75 89 40
       468.786 814.685
000190 71 3d 0a d7 a3 70 9b 40 a4 70 3d 0a 57 8d a1 40
       1756.16 2246.67
0001a0 0a d7 a3 70 bd 38 a4 40 ae 47 e1 7a 14 d0 9d 40
       2588.37 1908.02
0001b0 ae 47 e1 7a 14 a2 8f 40 7b 14 ae 47 e1 aa 8f 40
       1012.26 1013.36
0001c0 a4 70 3d 0a d7 ca 91 40 8f c2 f5 28 5c bb 97 40
       1138.71 1518.84
0001d0 f6 28 5c 8f c2 1a 9e 40 b0 72 68 91 ed 88 6f 40
       1926.69 252.279
0001e0 71 3d 0a d7 a3 30 94 c0 60 e5 d0 22 db f5 78 c0
       -1292.16 -399.366
0001f0 79 e9 26 31 08 a8 82 40 d7 a3 70 3d 0a a2 99 40
       597.004 1640.51
000200 8f c2 f5 28 dc 2e a2 40 b8 1e 85 eb 51 3c 9d 40
       2327.43 1871.08
000210 71 3d 0a d7 a3 32 97 40 c3 f5 28 5c 8f ef 94 40
       1484.66 1339.89
000220 33 33 33 33 33 d6 91 40 be 9f 1a 2f dd 88 89 40
       1141.55 817.108
000230 54 e3 a5 9b c4 94 7b 40 f9 2c cf 83 bb f3 10 c0
       441.298 -4.23802
000240 10 e9 b7 af 03 f7 53 c0 db f9 7e 6a bc ae 72 40
       -79.8596 298.921
000250 a0 1a 2f dd 24 62 69 40 29 5c 8f c2 f5 c4 74 c0
       203.067 -332.31
000260 d5 78 e9 26 31 f0 77 c0 30 4c a6 0a 46 51 57 c0
       -383.012 -93.2699
000270 c3 f5 28 5c 8f 60 93 40 85 eb 51 b8 9e ee a7 40
       1240.14 3063.31
000280 52 b8 1e 85 eb 66 a5 40 8f c2 f5 28 5c 24 9a 40
       2739.46 1673.09
000290 f6 28 5c 8f 42 12 a0 40 ec 51 b8 1e 05 59 a5 40
       2057.13 2732.51
0002a0 71 3d 0a d7 23 ac a2 40 8f c2 f5 28 5c 09 9e 40
       2390.07 1922.34
0002b0 cd cc cc cc cc 28 a9 40 c3 f5 28 5c 8f 84 b1 40
       3220.4 4484.56
0002c0 8f c2 f5 28 1c b0 be 40 00 00 00 00 c0 8a c6 40
       7856.11 11541.5
0002d0 66 66 66 66 26 5b cb 40 cd cc cc cc cc 64 ce 40
       14006.3 15561.6
0002e0 66 66 66 66 66 ac c7 40 cd cc cc cc 0c 44 c1 40
       12120.8 8840.1
0002f0 d7 a3 70 3d 4a ac b6 40 ae 47 e1 7a 14 13 ab 40
       5804.29 3465.54
000300 b8 1e 85 eb 51 ae a1 40 5c 8f c2 f5 28 8b 90 40
       2263.16 1058.79
000310 1f f4 6c 56 7d ea 52 c0 33 33 33 33 33 a3 7d c0
       -75.6639 -474.2
000320 6b 9a 77 9c a2 bf 56 c0 93 18 04 56 0e 55 61 c0
       -90.9943 -138.658
000330 54 e3 a5 9b c4 82 7e c0 68 91 ed 7c 3f 85 5b c0
       -488.173 -110.082
000340 a2 45 b6 f3 fd 02 83 40 3d 0a d7 a3 70 b3 9f 40
       608.374 2028.86
000350 3d 0a d7 a3 f0 97 ac 40 ec 51 b8 1e 85 1e a8 40
       3659.97 3087.26
000360 52 b8 1e 85 eb 12 a1 40 7b 14 ae 47 e1 9e a2 40
       2185.46 2383.44
000370 33 33 33 33 33 1a a5 40 d3 4d 62 10 58 00 8d 40
       2701.1 928.043
000380 10 58 39 b4 c8 3a 7d c0 66 66 66 66 66 54 9a 40
       -467.674 1685.1
000390 14 ae 47 e1 7a 1d aa 40 d7 a3 70 3d 8a 01 a4 40
       3342.74 2560.77
0003a0 9a 99 99 99 99 40 9f 40 3d 0a d7 a3 70 10 9f 40
       2000.15 1988.11
0003b0 29 5c 8f c2 f5 87 98 40 f0 a7 c6 4b 37 31 71 40
       1569.99 275.076
0003c0 b2 9d ef a7 c6 0f 63 c0 79 e9 26 31 08 11 87 40
       -152.493 738.129
0003d0 66 66 66 66 66 53 93 40 48 e1 7a 14 ae 53 95 40
       1236.85 1364.92
0003e0 5c 8f c2 f5 28 3e 92 40 23 db f9 7e 6a ae 87 40
       1167.54 757.802
0003f0 39 b4 c8 76 be 09 80 40 3d 0a d7 a3 70 47 75 40
       513.218 340.465
000400 4a 0c 02 2b 87 9d 88 40 29 5c 8f c2 f5 61 96 40
       787.691 1432.49
000410 8f c2 f5 28 5c 9c 9e 40 52 b8 1e 85 6b c9 a2 40
       1959.09 2404.71
000420 85 eb 51 b8 1e cb a2 40 c3 f5 28 5c 0f 46 a2 40
       2405.56 2339.03
000430 9a 99 99 99 99 2f 99 40 85 eb 51 b8 1e a3 90 40
       1611.9 1064.78
000440 cd cc cc cc cc 2c 94 40 29 5c 8f c2 f5 fe 9a 40
       1291.2 1727.74
000450 9a 99 99 99 99 e1 a4 40 a4 70 3d 0a 57 5f ae 40
       2672.8 3887.67
000460 1f 85 eb 51 78 b6 b5 40 8f c2 f5 28 9c 03 b9 40
       5558.47 6403.61
000470 1f 85 eb 51 b8 da b8 40 8f c2 f5 28 9c ca b5 40
       6362.72 5578.61
000480 f6 28 5c 8f 02 6a b0 40 14 ae 47 e1 7a ac ac 40
       4202.01 3670.24
000490 52 b8 1e 85 6b dc ab 40 0a d7 a3 70 7d 6b b0 40
       3566.21 4203.49
0004a0 52 b8 1e 85 2b 9e b3 40 71 3d 0a d7 23 0c b2 40
       5022.17 4620.14
0004b0 f6 28 5c 8f c2 af af 40 85 eb 51 b8 1e c1 ad 40
       4055.88 3808.56
0004c0 85 eb 51 b8 9e 8c aa 40 58 39 b4 c8 76 3e 8f 40
       3398.31 999.808
0004d0 52 b8 1e 85 eb fd 89 c0 f8 53 e3 a5 9b c3 80 c0
       -831.74 -536.451
0004e0 39 b4 c8 76 be 93 60 40 d7 a3 70 3d 0a 2a 9b 40
       132.617 1738.51
0004f0 c3 f5 28 5c 8f 2a a7 40 e1 7a 14 ae c7 c6 ab 40
       2965.28 3555.39
000500 a4 70 3d 0a 57 4b ac 40 7b 14 ae 47 e1 47 a8 40
       3621.67 3107.94
000510 0a d7 a3 70 3d 34 95 40 06 81 95 43 8b 41 8c c0
       1357.06 -904.193
000520 85 eb 51 b8 1e 7f 96 c0 3d 0a d7 a3 70 94 95 c0
       -1439.78 -1381.11
000530 62 10 58 39 b4 fe 89 c0 ec 51 b8 1e 85 fb 5c c0
       -831.838 -115.93
000540 7d 3f 35 5e ba 96 85 40 3d 0a d7 a3 70 96 95 40
       690.841 1381.61
000550 0a d7 a3 70 3d 82 80 40 cf f7 53 e3 a5 97 6b 40
       528.28 220.739
000560 f6 28 5c 8f 42 dd a3 40 71 3d 0a d7 a3 73 ad 40
       2542.63 3769.82
000570 48 e1 7a 14 ae c9 a0 40 14 ae 47 e1 7a 60 92 40
       2148.84 1176.12
000580 3d 0a d7 a3 70 00 94 40 f4 fd d4 78 e9 39 85 40
       1280.11 679.239
000590 33 33 33 33 33 fe 87 c0 df 4f 8d 97 6e be 6f 40
       -767.775 253.951
0005a0 b8 1e 85 eb d1 f6 a6 40 66 66 66 66 e6 99 a6 40
       2939.41 2892.95
0005b0 00 00 00 00 00 8c 9c 40 3d 0a d7 a3 70 c3 aa 40
       1827.0 3425.72
0005c0 48 e1 7a 14 6e 7c b5 40 f6 28 5c 8f 02 6b ba 40
       5500.43 6763.01
0005d0 1f 85 eb 51 38 d1 be 40 e1 7a 14 ae 47 7f b7 40
       7889.22 6015.28
0005e0 b8 1e 85 eb d1 01 b1 40 8f c2 f5 28 5c 30 ab 40
       4353.82 3480.18
0005f0 b8 1e 85 eb d1 6f a6 40 1f 85 eb 51 38 31 a6 40
       2871.91 2840.61
000600 e1 7a 14 ae c7 75 a5 40 48 e1 7a 14 2e d5 a3 40
       2746.89 2538.59
000610 ec 51 b8 1e 05 45 a1 40 14 ae 47 e1 7a 99 9c 40
       2210.51 1830.37
000620 85 eb 51 b8 1e a1 9f 40 b8 1e 85 eb 51 86 a3 40
       2024.28 2499.16
000630 29 5c 8f c2 f5 3b 9d 40 31 08 ac 1c 5a 1b 8b 40
       1870.99 867.419
000640 4c 37 89 41 60 71 6b 40 be 9f 1a 2f dd 72 74 c0
       219.543 -327.179
000650 7b 14 ae 47 e1 d6 7f 40 52 b8 1e 85 eb 55 90 40
       509.43 1045.48
000660 fc a9 f1 d2 4d 9a 69 40 02 2b 87 16 d9 dc 7b c0
       204.822 -445.803
000670 b4 c8 76 be 9f 16 87 c0 cd cc cc cc cc 6d 84 c0
       -738.828 -653.725
000680 f5 db d7 81 73 c6 36 c0 7d 3f 35 5e ba 8d 7d 40
       -22.7752 472.858
000690 e5 d0 22 db f9 30 8a 40 87 16 d9 ce f7 2d 7f 40
       838.122 498.873
0006a0 12 83 c0 ca a1 e9 6d c0 14 ae 47 e1 7a d0 62 c0
       -239.301 -150.515
0006b0 aa f1 d2 4d 62 54 60 40 0a d7 a3 70 3d 85 a0 40
       130.637 2114.62
0006c0 52 b8 1e 85 ab 04 b1 40 71 3d 0a d7 23 e0 b1 40
       4356.67 4576.14
0006d0 66 66 66 66 a6 9a b3 40 ae 47 e1 7a 14 c4 b9 40
       5018.65 6596.08
0006e0 71 3d 0a d7 23 07 c2 40 cd cc cc cc cc 57 cc 40
       9230.28 14511.6
0006f0 66 66 66 66 66 03 d5 40 66 66 66 66 46 02 dd 40
       21517.6 29705.1
000700 9a 99 99 99 99 6a e0 40 9a 99 99 99 79 f7 e0 40
       33620.8 34747.8
000710 33 33 33 33 33 db db 40 9a 99 99 99 59 41 d3 40
       28524.8 19717.4
000720 cd cc cc cc 4c 8c d1 40 33 33 33 33 33 08 d1 40
       17969.2 17440.8
000730 3d 0a d7 a3 f0 52 c1 40 29 5c 8f c2 f5 b0 a6 40
       8869.88 2904.48
000740 a4 70 3d 0a d7 a8 b9 40 d7 a3 70 3d ca 35 bf 40
       6568.84 7989.79
000750 8f c2 f5 28 5c e4 a3 40 87 16 d9 ce f7 bb 81 c0
       2546.18 -567.496
000760 85 eb 51 b8 1e 07 70 c0 81 95 43 8b 6c 6b 6f c0
       -256.445 -251.357
000770 00 00 00 00 00 98 7f c0 ae 47 e1 7a 14 59 95 c0
       -505.5 -1366.27
000780 ae 47 e1 7a 14 17 a4 c0 0a d7 a3 70 3d ec 7b c0
       -2571.54 -446.765
000790 ae 47 e1 7a 14 a4 a2 40 c3 f5 28 5c 8f 8a 60 40
       2386.04 132.33
0007a0 5c 8f c2 f5 28 dd a0 c0 48 e1 7a 14 ae 81 96 c0
       -2158.58 -1440.42
0007b0 37 89 41 60 e5 65 85 c0 c5 20 b0 72 68 1b 76 40
       -684.737 353.713
0007c0 52 b8 1e 85 eb 49 9c 40 b8 1e 85 eb d1 4c ac 40
       1810.48 3622.41
0007d0 f6 28 5c 8f 42 10 b0 40 e1 7a 14 ae 47 83 ab 40
       4112.26 3521.64
0007e0 e1 7a 14 ae c7 33 a6 40 00 00 00 00 00 98 a0 40
       2841.89 2124.0
0007f0 cd cc cc cc cc d6 91 40 48 e1 7a 14 ae 8b 62 40
       1141.7 148.365
