data/npydata/C13-D1.5-W2-P60-N90MJ-2.npy (npy, 187320 bytes, 1 tensors)

array f8 [23399]
00000000: 0000 0000 002b aac0 3333 3333 b3b4 a4c0
00000010: 3d0a d7a3 70cc 98c0 0e2d b29d ef9d 80c0
00000020: 713d 0ad7 a364 7940 46b6 f3fd d422 8840
00000030: 5a64 3bdf 4ff8 8c40 cba1 45b6 f3de 8b40
00000040: dd24 0681 9510 8740 77be 9f1a 2f12 8440
00000050: 0000 0000 005a 8240 f4fd d478 e956 7040
00000060: 3f35 5eba 4953 8340 ae47 e17a 14a5 9540
00000070: b81e 85eb 5156 a740 3d0a d7a3 70ff b240
00000080: e17a 14ae c7db b840 295c 8fc2 75d4 ba40
00000090: f628 5c8f 42a6 b140 52b8 1e85 eb1b a540
000000a0: 85eb 51b8 1e14 9f40 85eb 51b8 1e5d 9240
000000b0: 1058 39b4 c8e8 7740 8716 d9ce f79a 8440
000000c0: 08ac 1c5a 6498 88c0 0ad7 a370 3d98 9fc0
000000d0: 48e1 7a14 aedb 95c0 643b df4f 8d63 88c0
000000e0: d509 6822 6c48 4940 448b 6ce7 fb72 8b40
000000f0: e17a 14ae 4717 9e40 8fc2 f528 5cb6 a440
00000100: 1f85 eb51 b858 9840 dbf9 7e6a bc4e 8040
00000110: e09c 11a5 bd21 4240 1765 36c8 2423 02c0
00000120: 5839 b4c8 7690 8a40 85eb 51b8 1ef5 9740
00000130: 0000 0000 0020 9f40 3333 3333 3323 aa40
00000140: b81e 85eb 9176 b640 6666 6666 c6c5 c240
00000150: 3333 3333 f30e ce40 cdcc cccc cc37 d040
00000160: cdcc cccc 0c6e ca40 0000 0000 80e9 c340
00000170: d7a3 703d cadb ba40 cdcc cccc 4ceb ac40
00000180: fa7e 6abc 7437 8040 58a8 35cd 3b56 58c0
00000190: 14ae 47e1 7ade 7a40 3d0a d7a3 7039 8640
000001a0: 6210 5839 b47b 8c40 0ad7 a370 3d81 9040
000001b0: 713d 0ad7 a37f 9240 8941 60e5 d035 8040
000001c0: e17a 14ae 47ad 6bc0 9cc4 20b0 72c8 6ec0
000001d0: f0a7 c64b 3749 6bc0 48e1 7a14 ae14 90c0
000001e0: 0000 0000 0035 9bc0 c3f5 285c 8f82 83c0
000001f0: 21b0 7268 915b 8240 d7a3 703d 0a3c 9940
00000200: 8fc2 f528 dc38 a040 5839 b4c8 76ea 7940
00000210: e3a5 9bc4 204e 82c0 7368 91ed 7ceb 7c40
00000220: 0e2d b29d eff1 8a40 72f9 0fe9 b723 58c0
00000230: 83c0 caa1 4556 68c0 e17a 14ae 472c 9140
00000240: 0000 0000 00e4 9640 e3a5 9bc4 20d9 8540
00000250: 448b 6ce7 fbb4 8640 7b14 ae47 e155 9740
00000260: 85eb 51b8 9e1c a940 9a99 9999 193d b640
00000270: 9a99 9999 99f8 bb40 85eb 51b8 5e8c bf40
00000280: 1f85 eb51 7895 b940 295c 8fc2 3563 b040
00000290: 7b14 ae47 61dd a540 0ad7 a370 3d91 9a40
000002a0: b81e 85eb 5112 9940 713d 0ad7 a389 9940
000002b0: 3d0a d7a3 70df a740 d7a3 703d 0a5d b140
000002c0: 8fc2 f528 dc8e c140 3333 3333 b35d ca40
000002d0: cdcc cccc ccfe c740 0000 0000 c006 c540
000002e0: 0ad7 a370 1d46 c040 c3f5 285c 4f17 b740
000002f0: 1f85 eb51 b865 aa40 7b14 ae47 e1c4 9540
00000300: 8195 438b 6c89 7140 aaf1 d24d 62da 8140
00000310: 0000 0000 00c0 a740 ec51 b81e 0524 b040
00000320: 1f85 eb51 385d ad40 a470 3d0a 575d a340
00000330: c976 be9f 1ace 8340 986e 1283 c018 7ec0
00000340: 713d 0ad7 a33e 93c0 cba1 45b6 f389 8cc0
00000350: 48e1 7a14 aecb 6fc0 c74b 3789 414f 83c0
00000360: cdcc cccc cc8f 91c0 8fc2 f528 5cf8 95c0
00000370: 5c8f c2f5 288b 9ac0 14ae 47e1 7a64 9dc0
00000380: 3d0a d7a3 701c 9fc0 cdcc cccc cc87 95c0
00000390: a470 3d0a d729 87c0 1b0d e02d 90f8 40c0
000003a0: 643b df4f 8da3 8140 4260 e5d0 227f 8c40
000003b0: e926 3108 acbf 8e40 2db2 9def a700 8140
000003c0: 2fdd 2406 8131 6f40 0ad7 a370 3daa 6940
000003d0: 79e9 2631 08af 8c40 7b14 ae47 e1af a140
000003e0: 9a99 9999 1976 ab40 14ae 47e1 fa98 b240
000003f0: 5c8f c2f5 a80f b340 6666 6666 669b b140
00000400: 5c8f c2f5 a832 a940 ec51 b81e 854d 9940
00000410: 4c37 8941 60ca 8340 d578 e926 3120 63c0
00000420: 5839 b4c8 76bc 84c0 7b14 ae47 e15a 92c0
00000430: 5c8f c2f5 28d1 92c0 3108 ac1c 5afc 88c0
00000440: 85eb 51b8 1e8b 9840 3d0a d7a3 f09b ab40
00000450: a470 3d0a d7b6 b040 713d 0ad7 63cd b440
00000460: 9a99 9999 99d9 ba40 14ae 47e1 7a67 ba40
00000470: 52b8 1e85 6b87 b240 48e1 7a14 6e5b b040
00000480: f628 5c8f 02cf b240 ec51 b81e 45a6 b540
00000490: 6666 6666 66cd b840 8fc2 f528 1c56 b640
000004a0: 3d0a d7a3 305c b240 b81e 85eb d1c1 ab40
000004b0: 295c 8fc2 75e5 a240 a470 3d0a d746 a840
000004c0: f628 5c8f 42c3 ac40 5c8f c2f5 28e2 9b40
000004d0: 39b4 c876 be72 8140 6666 6666 e634 a040
000004e0: e17a 14ae 477e ab40 e17a 14ae 0759 b240
000004f0: 8fc2 f528 dc5b b240 7b14 ae47 e1d5 a640
00000500: b81e 85eb 5147 9a40 6210 5839 b414 8840
00000510: 0ad7 a370 3d95 9240 85eb 51b8 1e28 a340
00000520: 3333 3333 3354 9640 ac1c 5a64 3b99 80c0
00000530: 789c a223 b9dc 1240 14ae 47e1 7a7b 9240
00000540: a470 3d0a d7b9 a840 3d0a d7a3 7045 b340
00000550: 9a99 9999 19b1 ab40 14ae 47e1 fa01 a140
00000560: 21b0 7268 9190 8040 7593 1804 569a 84c0
00000570: 8d97 6e12 8352 86c0 e5d0 22db f950 78c0
00000580: bc74 9318 044d 8240 9a99 9999 9985 9840
00000590: cdcc cccc cc8a a440 295c 8fc2 7573 a040
000005a0: 5c8f c2f5 289c 7f40 1d5a 643b dfb9 7f40
000005b0: ec51 b81e 8551 9140 85eb 51b8 1e10 9540
000005c0: b81e 85eb 51a9 9740 ae47 e17a 1440 ac40
000005d0: 5c8f c2f5 2805 b740 7b14 ae47 a120 b840
000005e0: 0000 0000 8010 b840 ec51 b81e c5e5 b240
000005f0: ae47 e17a 941e ad40 295c 8fc2 75f9 a740
00000600: f628 5c8f c288 a340 c3f5 285c 8f87 9e40
00000610: 85eb 51b8 1e89 9640 0ad7 a370 3d81 9040
00000620: 295c 8fc2 f554 9240 d7a3 703d 0a00 9840
00000630: 0000 0000 009a 9c40 8fc2 f528 dcb2 a040
00000640: c3f5 285c 8f59 a240 52b8 1e85 6b2b a440
00000650: 5c8f c2f5 28cf ab40 6666 6666 e6ee af40
00000660: d7a3 703d 0ab8 a340 52b8 1e85 6b06 a140
00000670: 52b8 1e85 2bc6 b140 cdcc cccc 4ca9 b440
00000680: 1f85 eb51 3874 ad40 0000 0000 8073 a440
00000690: c3f5 285c 8f61 9c40 a470 3d0a d774 9840
000006a0: 0ad7 a370 3d09 9940 dbf9 7e6a bc2c 8a40
000006b0: 0ebe 3099 2a18 43c0 c74b 3789 4162 8940
000006c0: 48e1 7a14 aef2 9b40 ae47 e17a 141c 8440
000006d0: 1d38 6744 69b7 4440 f628 5c8f c25f 9540
000006e0: 3d0a d7a3 f0e0 aa40 ec51 b81e c5df bc40
000006f0: 0000 0000 40bb c840 3333 3333 7368 d240
00000700: 3333 3333 b3b3 d540 cdcc cccc 2c44 d740
00000710: 0000 0000 e073 d340 9a99 9999 d965 cb40
00000720: 0000 0000 8062 c540 713d 0ad7 230a bf40
00000730: 6666 6666 6682 b340 85eb 51b8 9e95 a940
00000740: f628 5c8f 82ed bb40 295c 8fc2 35e1 c040
00000750: c3f5 285c 8f44 a640 ee7c 3f35 5e7c 7bc0
00000760: c1ca a145 b6b3 4cc0 cff7 53e3 a587 60c0
00000770: 4e62 1058 3910 83c0 7593 1804 56ee 6fc0
00000780: 54e3 a59b c48c 8140 713d 0ad7 a3f0 9b40
00000790: d7a3 703d 0a04 a840 8fc2 f528 dce2 b440
000007a0: 6666 6666 a619 bd40 85eb 51b8 1e52 b940
000007b0: ec51 b81e 8537 b440 b81e 85eb 514a a340
000007c0: 3d0a d7a3 70bc 9240 d7a3 703d 8aff a340
000007d0: 85eb 51b8 9eb1 a240 e3a5 9bc4 20a6 8b40
000007e0: 48e1 7a14 ae5b 9140 3d0a d7a3 f06f a140
000007f0: 0000 0000 00e2 8f40 d122 dbf9 7e84 84c0
-3349.5 -2650.35 -1587.11 -531.742 406.29 772.354 927.039 891.869
738.073 642.273 587.25 261.432 618.411 1385.27 2987.16 4863.44
6363.78 6868.46 4518.26 2701.96 1989.03 1175.28 382.549 659.371
-787.049 -2022.06 -1398.92 -780.444 50.5658 878.373 1925.82 2651.18
1558.18 521.842 36.2636 -2.26716 850.058 1533.28 1992.0 3345.6
5750.57 9611.55 15389.9 16607.2 13532.1 10195.0 6875.79 3701.65
518.932 -97.3474 429.905 711.18 911.463 1056.31 1183.91 518.727
-221.415 -246.264 -218.288 -1029.17 -1741.25 -624.32 587.446 1615.01
2076.43 414.654 -585.766 462.718 862.242 -96.5581 -194.696 1099.07
1465.0 699.141 726.623 1493.47 3214.31 5693.1 7160.6 8076.37
6549.47 4195.21 2798.69 1700.31 1604.58 1634.41 3055.72 4445.04
8989.72 13499.4 12285.6 10765.5 8332.23 5911.31 3378.86 1393.22
280.589 571.298 3040.0 4132.02 3758.61 2478.67 633.763 -481.547
-1231.66 -913.244 -254.365 -617.907 -1123.95 -1406.09 -1698.79 -1881.12
-1991.11 -1377.95 -741.23 -33.9419 564.444 911.892 983.959 544.082
249.547 205.32 917.879 2263.94 3515.05 4760.98 4879.66 4507.4
3225.33 1619.38 633.297 -153.006 -663.558 -1174.72 -1204.29 -799.544
1570.78 3533.97 4278.84 5325.39 6873.6 6759.48 4743.42 4187.43
4815.01 5542.27 6349.4 5718.11 4700.19 3552.91 2418.73 3107.42
3681.63 1784.54 558.343 2074.45 3519.14 4697.03 4699.86 2922.94
1681.83 770.588 1189.31 2452.06 1429.05 -531.154 4.71555 1182.87
3164.92 4933.44 3544.55 2176.99 530.071 -659.292 -714.314 -389.061
585.627 1569.4 2629.4 2105.73 505.76 507.617 1108.38 1348.03
1514.33 3616.04 5893.16 6176.63 6160.5 4837.77 3727.29 3068.73
2500.38 1953.89 1442.28 1056.31 1173.24 1536.01 1830.5 2137.43
2348.78 2581.71 3559.58 4087.45 2524.02 2179.21 4550.17 5289.3
3770.11 2617.75 1816.39 1565.21 1602.31 837.592 -38.1888 812.282
1788.67 643.51 41.4329 1367.94 3440.47 7391.77 12662.5 18849.8
22222.8 23824.7 19919.5 14027.7 10949.0 7946.14 4994.4 3274.81
7149.51 8642.42 2850.28 -439.773 -57.404 -132.239 -610.028 -255.448
561.596 1788.16 3074.02 5346.86 7449.65 6482.12 5175.52 2469.16
1199.11 2559.77 2392.81 884.766 1110.92 2231.97 1020.25 -656.562
