data/npydata/C13-D1.5-W2-P60-N90MJ-5.npy (npy, 187320 bytes, 1 tensors)

array f8 [23399]
00000000: f628 5c8f c289 9540 a470 3d0a 573d adc0
00000010: 0000 0000 8014 b2c0 295c 8fc2 f50d a8c0
00000020: c3f5 285c 0f9e a340 713d 0ad7 a314 a840
00000030: ec51 b81e 85b9 ad40 3333 3333 7377 b240
00000040: 3333 3333 33aa b340 6666 6666 66c5 b340
00000050: d7a3 703d 0a8c af40 3333 3333 b3f7 a240
00000060: a470 3d0a 5786 a740 713d 0ad7 a329 af40
00000070: 6666 6666 a683 b640 6666 6666 a6c6 be40
00000080: 6666 6666 e69c b740 1f85 eb51 383d b240
00000090: 48e1 7a14 6eb6 b640 ae47 e17a d46b b840
000000a0: 3d0a d7a3 b090 b640 85eb 51b8 1edf b340
000000b0: 48e1 7a14 2e0b ad40 9643 8b6c e797 7340
000000c0: 295c 8fc2 751e ac40 d7a3 703d 4a12 b940
000000d0: ae47 e17a 148c b440 6666 6666 666c b040
000000e0: 9a99 9999 993a ac40 6666 6666 668e aa40
000000f0: e17a 14ae 47d5 b440 ae47 e17a 1468 ba40
00000100: a470 3d0a 9767 b440 3d0a d7a3 70ec ad40
00000110: ae47 e17a 1469 aa40 b81e 85eb 5162 aa40
00000120: 1f85 eb51 b8ac b040 3d0a d7a3 70a7 b440
00000130: 1f85 eb51 380d ba40 8fc2 f528 5c56 ba40
00000140: 6666 6666 664b b340 ae47 e17a 94d8 b540
00000150: 0ad7 a370 7d68 c140 3333 3333 f380 c640
00000160: 3333 3333 f363 ca40 6666 6666 268c c540
00000170: ec51 b81e 0582 b540 713d 0ad7 a346 ae40
00000180: ec51 b81e 4502 b140 7b14 ae47 e168 ae40
00000190: 9a99 9999 9962 a740 c3f5 285c 8f47 9940
000001a0: 4c37 8941 6045 4e40 54e3 a59b c4fc 7f40
000001b0: 85eb 51b8 1e16 9640 560e 2db2 9dd3 8440
000001c0: 6de7 fba9 f1de 70c0 0ad7 a370 3d1c a140
000001d0: 0ad7 a370 fd5f b340 14ae 47e1 7a4f a840
000001e0: 7b14 ae47 e183 9440 7368 91ed 7c40 8940
000001f0: 6f12 83c0 cac9 6240 14ae 47e1 7aa8 92c0
00000200: 14ae 47e1 7a42 a1c0 295c 8fc2 f565 a2c0
00000210: 5c8f c2f5 a8bf a1c0 6666 6666 66b7 97c0
00000220: 14ae 47e1 7a25 86c0 54e3 a59b c4ac 7040
00000230: 0681 9543 8b64 8440 fbcb eec9 c35e 5240
00000240: 8b6c e7fb a907 8d40 48e1 7a14 2e1d ac40
00000250: 85eb 51b8 1e98 b340 c3f5 285c cf5e b440
00000260: 48e1 7a14 2e0c b140 b81e 85eb 5154 a540
00000270: cdcc cccc 4c3f a540 9a99 9999 9992 ab40
00000280: 3d0a d7a3 7075 ab40 6666 6666 e61a a940
00000290: f628 5c8f 42ab a840 1f85 eb51 b8ad a840
000002a0: 5c8f c2f5 288e af40 85eb 51b8 9ea0 b340
000002b0: 7b14 ae47 e17c b240 c3f5 285c 0f37 b140
000002c0: 3333 3333 b326 aa40 48e1 7a14 2efc a440
000002d0: 713d 0ad7 63b2 ba40 0000 0000 c099 c440
000002e0: 6666 6666 a600 c540 3333 3333 f38d c340
000002f0: 713d 0ad7 e3d2 b940 c3f5 285c 8fbb ab40
00000300: 77be 9f1a 2f45 8940 be9f 1a2f dda3 87c0
00000310: 560e 2db2 9d2b 78c0 e3a5 9bc4 20f8 61c0
00000320: 3255 302a a97b 42c0 3789 4160 e55e 72c0
00000330: dbf9 7e6a bcc6 88c0 6abc 7493 180c 8dc0
00000340: c74b 3789 41dc 8bc0 7f6a bc74 93d0 70c0
00000350: 0000 0000 00b7 8040 1058 39b4 c8e8 79c0
00000360: 0000 0000 009a 98c0 ec51 b81e 8510 91c0
00000370: 3d0a d7a3 703b 79c0 a245 b6f3 fd0c 6840
00000380: 52b8 1e85 eb4b 8f40 d7a3 703d 8a97 b040
00000390: f628 5c8f 42be ba40 0000 0000 0054 b840
000003a0: 52b8 1e85 eb39 b440 7b14 ae47 61e7 a640
000003b0: a470 3d0a d7c0 9040 c74b 3789 41ce 7dc0
000003c0: d7a3 703d 0a04 8ec0 6de7 fba9 f136 6540
000003d0: f628 5c8f c24c 9840 1f85 eb51 3834 a840
000003e0: 9a99 9999 d9de b640 48e1 7a14 ae89 c240
000003f0: b81e 85eb 71ba c140 0000 0000 c0f1 ba40
00000400: 1f85 eb51 b8b7 b840 f628 5c8f 8220 b840
00000410: ec51 b81e 85ae b940 0ad7 a370 7d4c bb40
00000420: 7b14 ae47 21a5 b140 cdcc cccc cc04 a040
00000430: cdcc cccc ccfb a040 d7a3 703d 0aa7 a440
00000440: f628 5c8f 0250 b240 c3f5 285c cfa5 b840
00000450: f628 5c8f 422d ba40 9a99 9999 99bc bc40
00000460: 9a99 9999 f97d c040 7b14 ae47 0186 c240
00000470: 6666 6666 e694 c440 1f85 eb51 58f1 c140
00000480: 3333 3333 3313 b740 c3f5 285c cfa7 b040
00000490: 52b8 1e85 ebc3 aa40 7b14 ae47 e1d0 9d40
000004a0: a245 b6f3 fd56 7140 f489 3c49 ba66 09c0
000004b0: c364 aa60 541e 55c0 41f1 63cc 5dab 28c0
000004c0: 8fc2 f528 5c77 6440 ae47 e17a 14bf 9740
000004d0: 0ad7 a370 bd02 a540 0ad7 a370 3dbf a940
000004e0: e17a 14ae 47c1 ab40 cdcc cccc 4c8a a640
000004f0: 9a99 9999 19c2 a340 b81e 85eb 51cd a440
00000500: ec51 b81e 85b2 aa40 713d 0ad7 a3b6 b340
00000510: f628 5c8f 021e b740 52b8 1e85 2bc4 b740
00000520: f628 5c8f 424a b540 3d0a d7a3 7070 b140
00000530: c3f5 285c 0f55 a840 a470 3d0a d74c 9840
00000540: 6210 5839 b4e9 8e40 91ed 7c3f 35a9 8040
00000550: dd24 0681 958f 6540 0534 1136 3c5d 2b40
00000560: 5a64 3bdf 4f75 8940 d7a3 703d 0a5c 9740
00000570: 295c 8fc2 f5ca 9d40 ae47 e17a 1452 a240
00000580: 14ae 47e1 fa29 a640 3d0a d7a3 f028 a640
00000590: 48e1 7a14 aec1 a140 e17a 14ae c7c0 a040
000005a0: 713d 0ad7 a334 a240 52b8 1e85 6be9 b140
000005b0: 713d 0ad7 6358 bd40 ae47 e17a 146f c140
000005c0: 9a99 9999 5994 c340 7b14 ae47 c1e7 c040
000005d0: 6666 6666 e62f bb40 3333 3333 f370 b140
000005e0: ae47 e17a 9445 a440 52b8 1e85 ebb6 a940
000005f0: 295c 8fc2 75cf ab40 1f85 eb51 388b a640
00000600: e17a 14ae 4713 9f40 6f12 83c0 cac2 8140
00000610: 2506 8195 4333 5ac0 849e cdaa cfcd 4440
00000620: 1283 c0ca a1c0 8340 3333 3333 338a 9640
00000630: d122 dbf9 7e3f 8440 fa7e 6abc 7441 85c0
00000640: d9ce f753 e341 82c0 ba49 0c02 2b5b 76c0
00000650: 1283 c0ca a135 62c0 f0a7 c64b 3701 4f40
00000660: 08ac 1c5a 64fb 7040 8941 60e5 d03b 8940
00000670: ec51 b81e 85b6 a040 6666 6666 e655 ab40
00000680: 3333 3333 f399 b340 0ad7 a370 bdf5 b440
00000690: 5c8f c2f5 281b b240 7b14 ae47 2109 b640
000006a0: a470 3d0a 17d6 bd40 1f85 eb51 f85e b940
000006b0: 0ad7 a370 fd66 b240 8fc2 f528 5cb7 b140
000006c0: 0000 0000 c086 b140 85eb 51b8 1e9b b140
000006d0: 9a99 9999 59cf b340 e17a 14ae 07d3 bf40
000006e0: 0000 0000 c0fd c740 cdcc cccc ecb2 d240
000006f0: 9a99 9999 9967 d840 9a99 9999 5908 dc40
00000700: cdcc cccc 4c01 dc40 3333 3333 534f d940
00000710: 9a99 9999 d9ef d340 6666 6666 66a8 cb40
00000720: 6666 6666 e6e8 c840 3333 3333 73ba c740
00000730: 0000 0000 004d b840 85eb 51b8 1e55 a140
00000740: d7a3 703d 8a74 b640 52b8 1e85 2bc2 bc40
00000750: 14ae 47e1 fabd a740 1283 c0ca a19f 7340
00000760: 1bf5 108d eea0 06c0 88f4 dbd7 81f3 e7bf
00000770: 5839 b4c8 760e 7140 0e2d b29d ef37 6840
00000780: a5bd c117 2623 54c0 3333 3333 33e1 9640
00000790: f628 5c8f c271 aa40 48e1 7a14 2e63 a640
000007a0: cdcc cccc 4cc2 a040 54e3 a59b c404 8d40
000007b0: 1283 c0ca a1a5 6fc0 a470 3d0a d77a 98c0
000007c0: 9a99 9999 998b 9ec0 1283 c0ca a147 87c0
000007d0: d122 dbf9 7e40 7e40 d7a3 703d 0a73 9d40
000007e0: 48e1 7a14 ae2a 9b40 21b0 7268 91cd 8840
000007f0: 48e1 7a14 ae4f 7840 df4f 8d97 6e72 5f40
1378.44 -3742.67 -4628.5 -3078.98 2511.03 3082.32 3804.76 4727.45
5034.2 5061.4 4038.02 2427.85 3011.17 3988.82 5763.65 7878.65
6044.9 4669.22 5814.43 6251.83 5776.69 5087.12 3717.59 313.494
3599.23 6418.29 5260.08 4204.4 3613.3 3399.2 5333.28 6760.08
5223.59 3830.22 3380.54 3377.16 4268.72 5287.44 6669.22 6742.36
4939.4 5592.58 8912.98 11521.9 13511.9 11032.3 5506.02 3875.32
4354.27 3892.44 2993.3 1617.89 60.542 511.798 1413.53 666.452
-269.934 2190.12 4959.99 3111.74 1312.97 808.061 150.306 -1194.12
-2209.24 -2354.98 -2271.83 -1517.85 -708.685 266.798 652.568 73.4807
928.958 3598.59 5016.12 5214.81 4364.18 2730.16 2719.65 3529.3
3514.72 3213.45 3157.63 3158.86 4039.08 5024.62 4732.88 4407.06
3347.35 2686.09 6834.39 10547.5 10753.3 10011.9 6610.89 3549.78
808.648 -756.483 -386.726 -143.754 -36.9661 -293.931 -792.842 -929.512
-891.532 -269.036 534.875 -414.549 -1574.5 -1092.13 -403.715 192.406
1001.49 4247.54 6846.26 6228.0 5177.92 2931.69 1072.21 -476.891
-960.505 169.717 1555.19 3098.11 5854.85 9491.36 9076.89 6897.75
6327.72 6176.51 6574.52 6988.49 4517.13 2050.4 2173.9 2643.52
4688.01 6309.81 6701.26 7356.6 8443.95 9484.01 10537.8 9186.69
5907.2 4263.81 3425.96 1908.22 277.437 -3.17516 -84.4739 -12.3347
163.73 1519.77 2689.37 3295.62 3552.64 2885.15 2529.05 2662.66
3417.26 5046.64 5918.01 6084.17 5450.26 4464.44 3114.53 1555.21
989.213 533.151 172.487 13.6821 814.664 1495.01 1906.74 2345.04
2836.99 2836.47 2272.84 2144.39 2330.32 4585.42 7512.39 8926.16
10024.7 8655.51 6959.9 4464.95 2594.79 3291.46 3559.73 2885.61
1988.82 568.349 -104.801 41.6079 632.079 1442.55 647.937 -680.182
-584.236 -357.698 -145.676 62.0095 271.712 807.477 2139.26 3498.95
5017.95 5365.74 4635.16 5641.13 7638.09 6494.97 4710.99 4535.36
4486.75 4507.12 5071.35 8147.03 12283.5 19147.7 24990.4 28705.4
28677.2 25917.3 20415.4 14160.8 12753.8 12148.9 6221.0 2218.56
5748.54 7362.17 3038.99 313.977 -2.82858 -0.748475 272.904 193.748
-80.5492 1464.3 3384.88 2865.59 2145.15 928.596 -253.176 -1566.71
-1954.9 -744.954 484.031 1884.76 1738.67 793.696 388.98 125.788
