data/npydata/C3-D1.5-W2-P60-N90MJ-8.npy (npy, 187320 bytes, 1 tensors)

array f8 [23399]
00000000: 9a99 9999 992c 92c0 e926 3108 ac1c 3140
00000010: e5d0 22db f9c2 6f40 1a51 da1b 7c71 4dc0
00000020: 0ad7 a370 bd74 a040 f628 5c8f c278 a640
00000030: 8fc2 f528 5c39 a940 a470 3d0a d78f aa40
00000040: 3d0a d7a3 f062 ac40 7b14 ae47 619d ae40
00000050: 7b14 ae47 a166 b140 f628 5c8f 820e b440
00000060: 9a99 9999 5920 be40 6666 6666 26c0 c440
00000070: cdcc cccc 8cb5 c940 cdcc cccc 8cb8 ce40
00000080: 0000 0000 c0b3 cc40 3333 3333 3347 c840
00000090: 9a99 9999 79aa c240 713d 0ad7 e392 bb40
000000a0: 9a99 9999 19d5 b440 a470 3d0a 57f6 b040
000000b0: 5c8f c2f5 a8fa ab40 f2d2 4d62 10c0 7440
000000c0: 60e5 d022 db91 6dc0 52b8 1e85 ebd6 83c0
000000d0: 0000 0000 00b4 9340 cdcc cccc 4c49 a640
000000e0: 0000 0000 8005 a340 7b14 ae47 e10c a040
000000f0: 3333 3333 33e4 9b40 3d0a d7a3 703e 9340
00000100: a470 3d0a d7cb 7fc0 3333 3333 3331 9fc0
00000110: 6666 6666 66f9 a0c0 9a99 9999 995f a3c0
00000120: 0000 0000 8033 a8c0 7b14 ae47 61ae a6c0
00000130: 5c8f c2f5 2895 92c0 a01a 2fdd 2434 7540
00000140: d7a3 703d 0a1f 9540 6666 6666 6655 9c40
00000150: 0ad7 a370 3d1e 9b40 5c8f c2f5 28b7 9a40
00000160: 52b8 1e85 eb12 9b40 3333 3333 339e 9340
00000170: d122 dbf9 7e1c 7c40 560e 2db2 9d30 85c0
00000180: cdcc cccc cc7e 9fc0 8fc2 f528 5c3b 97c0
00000190: 21b0 7268 9125 59c0 c139 234a 7b0f 57c0
000001a0: 8b6c e7fb a970 81c0 295c 8fc2 f5a4 8ac0
000001b0: 85eb 51b8 1e2a 91c0 d7a3 703d 0a6a 90c0
000001c0: 4260 e5d0 2222 8ec0 79e9 2631 087a 8ac0
000001d0: a01a 2fdd 24aa 86c0 a245 b6f3 fd30 8bc0
000001e0: 3d0a d7a3 70a4 90c0 b81e 85eb d120 a1c0
000001f0: 8fc2 f528 5c9b a7c0 9318 0456 0e62 8cc0
00000200: 7d3f 355e ba19 8a40 52b8 1e85 eba4 9d40
00000210: ec51 b81e 8564 a340 295c 8fc2 f506 9940
00000220: 5c8f c2f5 285e 9440 85eb 51b8 9e67 a140
00000230: 0ad7 a370 3dbe ab40 9a99 9999 d95f b540
00000240: d7a3 703d 4a5d b440 1f85 eb51 b88b a140
00000250: 3d0a d7a3 70ed 5c40 1f85 eb51 b815 92c0
00000260: ec51 b81e 8555 94c0 8195 438b 6c6b 84c0
00000270: 9318 0456 0e5e 8dc0 c3f5 285c 8f67 9ac0
00000280: c3f5 285c 8f25 8ec0 713d 0ad7 a372 7040
00000290: ec51 b81e 05b3 ab40 0ad7 a370 fd98 bb40
000002a0: 9a99 9999 d97d c440 3333 3333 f320 cb40
000002b0: 9a99 9999 19bd cc40 cdcc cccc 0c2d ce40
000002c0: cdcc cccc cc81 d340 cdcc cccc 4cae d740
000002d0: 6666 6666 a668 d440 cdcc cccc 0c99 d040
000002e0: cdcc cccc cc36 c740 9a99 9999 592a bd40
000002f0: a470 3d0a d751 b240 9a99 9999 192b a640
00000300: 3333 3333 33a8 a440 0ad7 a370 bd4f a040
00000310: c976 be9f 1a2e 8f40 8fc2 f528 5c4d a440
00000320: cdcc cccc cc77 bb40 c3f5 285c cfe1 bf40
00000330: a470 3d0a d7e8 ba40 295c 8fc2 75fb b140
00000340: 14ae 47e1 7a42 9d40 c3f5 285c 8f3a 70c0
00000350: 713d 0ad7 a300 a1c0 f628 5c8f c281 9cc0
00000360: ec51 b81e 8554 91c0 0e2d b29d ef07 71c0
00000370: b4c8 76be 9f03 8540 6666 6666 667d a940
00000380: ae47 e17a 14f9 b640 48e1 7a14 4e90 c240
00000390: 6666 6666 e627 c740 0000 0000 807b bf40
000003a0: 14ae 47e1 7a8b b240 7b14 ae47 61a2 a340
000003b0: 0000 0000 0005 9540 f628 5c8f c284 9e40
000003c0: 85eb 51b8 1ead 9f40 a470 3d0a d78b 9440
000003d0: 0ad7 a370 3dac 8c40 b072 6891 ed8d 8940
000003e0: fca9 f1d2 4d99 8840 46b6 f3fd d4f4 8840
000003f0: 643b df4f 8df2 8640 1904 560e 2de8 8340
00000400: 022b 8716 d980 7740 d93d 7958 a895 4b40
00000410: fca9 f1d2 4d26 66c0 9318 0456 0e17 77c0
00000420: ac1c 5a64 3b1f 52c0 0ad7 a370 3dd4 7040
00000430: a470 3d0a d773 8740 1f85 eb51 b8c6 9240
00000440: 14ae 47e1 7a22 9840 1f85 eb51 380b a640
00000450: ec51 b81e 450e b940 52b8 1e85 cb29 c140
00000460: ae47 e17a 142d c240 5c8f c2f5 6804 c140
00000470: 3d0a d7a3 b09d ba40 ae47 e17a 54a4 b540
00000480: 48e1 7a14 eeaf b240 295c 8fc2 f514 af40
00000490: 48e1 7a14 2e5a a840 5c8f c2f5 2817 a240
000004a0: 52b8 1e85 eba5 9840 6891 ed7c 3fa9 7640
000004b0: 23db f97e 6ab5 8bc0 d7a3 703d 0aa1 a040
000004c0: a470 3d0a d7df b340 c3f5 285c 8f0c b040
000004d0: 85eb 51b8 9e95 a840 ae47 e17a 14c8 9f40
000004e0: 14ae 47e1 7a01 9240 79e9 2631 08d3 8c40
000004f0: f628 5c8f c2cd 8040 97ff 907e fbca 4ec0
00000500: 0c02 2b87 1641 5d40 d7a3 703d 0a0d 9340
00000510: 295c 8fc2 f581 9740 f628 5c8f c226 9240
00000520: 8941 60e5 d0ee 8940 dd24 0681 9595 7d40
00000530: 17d9 cef7 5311 85c0 6666 6666 6684 a0c0
00000540: ec51 b81e 8552 94c0 60e5 d022 db67 77c0
00000550: 0e2d b29d ef75 8240 6666 6666 66d2 9440
00000560: 0000 0000 0050 9240 713d 0ad7 a317 9040
00000570: c3f5 285c 8fef 8c40 d7a3 703d 0acd 8540
00000580: 46b6 f3fd d4d0 6f40 0bb5 a679 c711 49c0
00000590: dbf9 7e6a bc1c 6bc0 ae47 e17a 14a7 83c0
000005a0: 713d 0ad7 a383 92c0 a470 3d0a d761 90c0
000005b0: 9643 8b6c e799 84c0 b81e 85eb 51c3 9940
000005c0: f628 5c8f 42b5 b040 48e1 7a14 ae2d af40
000005d0: 8fc2 f528 5cb1 aa40 ae47 e17a 1483 9940
000005e0: f4fd d478 e966 6940 986e 1283 c0da 6840
000005f0: ae47 e17a 14c6 6040 6de7 fba9 f126 50c0
00000600: ca54 c1a8 a402 5140 9cc4 20b0 72f4 8640
00000610: ec51 b81e 05a9 a540 48e1 7a14 ae56 b640
00000620: 7b14 ae47 e1e3 bf40 cdcc cccc cc45 c440
00000630: 6666 6666 e6d6 c040 7b14 ae47 a1bd b540
00000640: 295c 8fc2 f55d b740 d7a3 703d 0a61 ba40
00000650: 3333 3333 9353 c040 ec51 b81e c5df c140
00000660: d7a3 703d 8a00 b840 e17a 14ae c7bb ab40
00000670: 0ad7 a370 3d02 9940 e3a5 9bc4 20e3 8c40
00000680: a470 3d0a d745 9f40 ae47 e17a 94ab a240
00000690: f628 5c8f 42bb a040 e17a 14ae 476c 9340
000006a0: 6c09 f9a0 6713 49c0 a01a 2fdd 2480 8840
000006b0: f628 5c8f c2f6 9f40 d7a3 703d 8a9c ae40
000006c0: ae47 e17a 142f b740 6666 6666 a6e0 b640
000006d0: 52b8 1e85 2b81 b940 3333 3333 33bc c440
000006e0: cdcc cccc cc35 cb40 6666 6666 2664 ce40
000006f0: 9a99 9999 39d7 d340 3333 3333 f3af db40
00000700: 9a99 9999 d929 dd40 9a99 9999 191e da40
00000710: 6666 6666 661f d440 6666 6666 a6a5 ca40
00000720: 295c 8fc2 b556 c040 b81e 85eb d1da a340
00000730: 52b8 1e85 6b3d a840 295c 8fc2 f52f a940
00000740: e3a5 9bc4 2023 8140 5c8f c2f5 28d3 9ac0
00000750: 9a99 9999 996f a2c0 85eb 51b8 1e70 a0c0
00000760: fa7e 6abc 740a 85c0 7d3f 355e baa7 7440
00000770: 7b14 ae47 e123 9240 48e1 7a14 ae12 9e40
00000780: 713d 0ad7 23ca a440 1f85 eb51 b879 ab40
00000790: 8fc2 f528 9c17 b140 d7a3 703d 0a3a a440
000007a0: 1283 c0ca a13d 8e40 0000 0000 008f a640
000007b0: 7b14 ae47 a1f4 b040 713d 0ad7 a3c3 b140
000007c0: 8fc2 f528 1ccd b040 d7a3 703d 0a53 aa40
000007d0: b81e 85eb 11dc b240 f628 5c8f 22ac c040
000007e0: 5c8f c2f5 6822 c140 ec51 b81e c529 bc40
000007f0: c3f5 285c 0f90 b340 d7a3 703d 8aa6 a540
-1163.15 17.112 254.093 -58.8866 2106.37 2876.38 3228.68 3399.92
3633.47 3918.69 4454.63 5134.51 7712.35 10624.3 13163.1 15729.1
14695.5 12430.4 9556.95 7058.89 5333.1 4342.34 3581.33 332.004
-236.558 -634.865 1261.0 2852.65 2434.75 2054.44 1785.05 1231.61
-508.74 -1996.3 -2172.7 -2479.8 -3097.75 -2903.19 -1189.29 339.259
1351.76 1813.35 1735.56 1709.79 1732.73 1255.55 449.781 -678.077
-2015.7 -1486.84 -100.587 -92.2419 -558.083 -852.62 -1098.53 -1050.51
-964.267 -847.254 -725.268 -870.124 -1065.11 -2192.41 -3021.68 -908.257
835.216 1897.23 2482.26 1601.74 1303.54 2227.81 3551.12 5471.85
5213.29 2245.86 115.71 -1157.43 -1301.38 -653.428 -939.757 -1689.89
-964.695 263.165 3545.51 7064.99 10491.7 13889.9 14714.2 15450.1
19975.2 24249.2 20898.6 16996.2 11885.6 7466.35 4689.84 2837.55
2644.1 2087.87 997.763 2598.68 7031.8 8161.81 6888.84 4603.46
1872.62 -259.66 -2176.32 -1824.44 -1109.13 -272.496 672.453 3262.7
5881.08 9504.61 11855.8 8059.5 4747.48 2513.19 1345.25 1953.19
2027.28 1314.96 917.53 817.741 787.163 798.604 734.319 637.022
376.053 55.1692 -177.197 -369.441 -72.488 269.265 750.48 1201.68
1544.62 2821.61 6414.27 8787.59 9306.16 8712.82 6813.69 5540.33
4783.93 3978.48 3117.09 2315.58 1577.48 362.578 -886.677 2128.52
5087.84 4108.56 3146.81 2034.02 1152.37 922.379 537.72 -61.5858
117.017 1219.26 1504.49 1161.69 829.852 473.349 -674.166 -2114.2
-1300.63 -374.491 590.742 1332.6 1172.0 1029.91 925.945 697.63
254.526 -50.1389 -216.898 -628.885 -1184.91 -1048.46 -659.238 1648.83
4277.26 3990.84 3416.68 1632.77 203.216 198.836 134.19 -64.6085
68.0413 734.556 2772.51 5718.68 8163.88 10379.6 8621.8 5565.63
5981.96 6753.04 8359.15 9151.54 6144.54 3549.89 1600.56 924.391
2001.46 2389.79 2141.63 1243.07 -50.1516 784.018 2045.69 3918.27
5935.08 5856.65 6529.17 10616.4 13931.6 15560.3 20316.9 28351.8
29863.4 26744.4 20605.6 13643.3 8365.42 2541.41 3102.71 3223.98
548.391 -1716.79 -2359.8 -2104.06 -673.307 330.483 1160.97 1924.67
2661.07 3516.86 4375.61 2589.02 967.704 2887.5 4340.63 4547.64
4301.11 3369.52 4828.07 8536.27 8772.82 7209.77 5008.06 2771.27
