data/npydata/C4-D1.5-W2-P60-N90MJ-2.npy (npy, 187320 bytes, 1 tensors)

array f8 [23399]
00000000: 295c 8fc2 75fb a940 0000 0000 4028 b140
00000010: 295c 8fc2 75c5 af40 85eb 51b8 9ee4 a740
00000020: 9a99 9999 99cb b040 48e1 7a14 2eaa aa40
00000030: 713d 0ad7 a345 ab40 0ad7 a370 fd66 b040
00000040: 52b8 1e85 ebce ae40 d7a3 703d 8af8 a740
00000050: 3333 3333 b35b b040 295c 8fc2 f55d b740
00000060: cdcc cccc 8c62 bd40 85eb 51b8 be0e c240
00000070: c3f5 285c cf61 c140 e17a 14ae 073a bf40
00000080: ec51 b81e 05e2 ba40 ec51 b81e c562 b640
00000090: a470 3d0a 572c b340 c3f5 285c 4f53 b040
000000a0: 6666 6666 e6fe a440 14ae 47e1 7aec 8f40
000000b0: e5d0 22db f9d2 8e40 1f85 eb51 b844 70c0
000000c0: 6666 6666 66b0 7fc0 2fdd 2406 8173 84c0
000000d0: fed4 78e9 2650 8440 cdcc cccc ccd9 9a40
000000e0: 85eb 51b8 1e1e 9240 cba1 45b6 f371 8840
000000f0: d7a3 703d 0a44 9540 48e1 7a14 2ebe a140
00000100: 3d0a d7a3 3079 b140 d7a3 703d ca1f b640
00000110: ae47 e17a 1429 aa40 713d 0ad7 a36d 9f40
00000120: 52b8 1e85 6bf2 a240 5c8f c2f5 28e3 a840
00000130: 7b14 ae47 e147 b240 9a99 9999 5925 b840
00000140: 7b14 ae47 6115 bd40 cdcc cccc 8c68 c040
00000150: 0000 0000 40d1 c140 0000 0000 80c9 be40
00000160: 9a99 9999 9994 b240 e17a 14ae c7d2 a240
00000170: aaf1 d24d 62db 8740 e7fb a9f1 d2d5 5ec0
00000180: d7a3 703d 0a37 83c0 0ad7 a370 3d30 7ac0
00000190: ef38 4547 7229 5740 d34d 6210 5858 8940
000001a0: 295c 8fc2 f527 9940 0ad7 a370 3d4b a040
000001b0: a470 3d0a d74f a340 1f85 eb51 b8a3 9a40
000001c0: cdcc cccc cc92 8940 6666 6666 6652 6f40
000001d0: 83c0 caa1 4526 73c0 8d97 6e12 83ce 8840
000001e0: 7b14 ae47 e1b6 9c40 14ae 47e1 7ad8 9b40
000001f0: 6666 6666 66ed 9840 a470 3d0a d7a3 8040
00000200: 0e2d b29d efdf 5fc0 91ed 7c3f 3589 8140
00000210: f628 5c8f c294 9040 2731 08ac 1cee 8d40
00000220: 1058 39b4 c850 7a40 0000 0000 00bc 90c0
00000230: a470 3d0a d779 9ac0 986e 1283 c0f6 8bc0
00000240: 8fc2 f528 5c8c 90c0 7b14 ae47 61ef a2c0
00000250: b81e 85eb 518a a1c0 c3f5 285c 8fc7 83c0
00000260: bc74 9318 0474 8840 c3f5 285c 0f9e a040
00000270: 713d 0ad7 231b a240 ae47 e17a 1400 9e40
00000280: 5c8f c2f5 28e3 9b40 48e1 7a14 ae3b 9b40
00000290: 713d 0ad7 a3d6 a040 14ae 47e1 7aa0 a440
000002a0: 5c8f c2f5 2885 ac40 0000 0000 8071 b240
000002b0: 1f85 eb51 b8ed b340 6666 6666 a668 b540
000002c0: d7a3 703d 8a2a c040 9a99 9999 599f c540
000002d0: 3333 3333 7386 c440 9a99 9999 1903 c340
000002e0: 713d 0ad7 230d c040 85eb 51b8 9e3f bb40
000002f0: 9a99 9999 990c b940 a470 3d0a d7dd b940
00000300: c3f5 285c af77 c040 85eb 51b8 9ecb c040
00000310: 85eb 51b8 5e2c b840 713d 0ad7 230d ac40
00000320: d9ce f753 e38b 8940 d881 7346 9462 5140
00000330: cba1 45b6 f3f0 8840 2506 8195 43ff 7840
00000340: 83c0 caa1 4582 80c0 60e5 d022 db09 7cc0
00000350: f5b9 da8a fdb5 46c0 7f6a bc74 9387 8240
00000360: 295c 8fc2 f5d9 9240 9a99 9999 99cd 9440
00000370: 713d 0ad7 a33f 9640 b81e 85eb 51f8 8f40
00000380: 355e ba49 0c17 8340 64cc 5d4b c8f7 3ec0
00000390: 713d 0ad7 a395 83c0 91ed 7c3f 3539 8ec0
000003a0: f628 5c8f c245 8fc0 2fdd 2406 81c1 6cc0
000003b0: a470 3d0a d74b 5840 7593 1804 56ee 75c0
000003c0: ee7c 3f35 5e58 7dc0 e71d a7e8 484e 57c0
000003d0: 0681 9543 8bdc 6540 0681 9543 8be4 7440
000003e0: 508d 976e 1259 8b40 8fc2 f528 5c39 9a40
000003f0: 0ad7 a370 3dac 9d40 1f85 eb51 b828 9d40
00000400: 85eb 51b8 1e32 a340 0ad7 a370 bd6c a940
00000410: cdcc cccc cc8c a640 f628 5c8f 42f0 a240
00000420: 85eb 51b8 1ec2 9e40 5c8f c2f5 2812 9840
00000430: cdcc cccc ccb0 9c40 d7a3 703d 0ae8 a040
00000440: 295c 8fc2 f5bc a440 f628 5c8f c24a ae40
00000450: 14ae 47e1 baf1 ba40 8fc2 f528 9c60 c040
00000460: 7b14 ae47 e14d bd40 8fc2 f528 9c86 b840
00000470: 713d 0ad7 63ec b140 6666 6666 6660 a540
00000480: 6de7 fba9 f114 8840 5a64 3bdf 4fb9 89c0
00000490: ae47 e17a 94ce a1c0 3f35 5eba 49a6 8ac0
000004a0: ae47 e17a 14ed 9440 0000 0000 00f8 9b40
000004b0: 0000 0000 00f5 9e40 3333 3333 b36c a140
000004c0: 9a99 9999 1932 a340 a470 3d0a 5796 a140
000004d0: 3d0a d7a3 7024 9f40 8fc2 f528 5c74 9640
000004e0: 52b8 1e85 eb4c 8a40 54e3 a59b c410 6640
000004f0: bc74 9318 045a 7bc0 7d3f 355e ba7a 8dc0
00000500: 022b 8716 d9de 88c0 1d5a 643b dfa7 5f40
00000510: cba1 45b6 f3f1 8b40 5c8f c2f5 28db 9540
00000520: 508d 976e 122b 7540 8fc2 f528 5cc8 95c0
00000530: d122 dbf9 7e04 8dc0 7b14 ae47 e182 5940
00000540: 986e 1283 c01a 66c0 cdcc cccc cc0e 80c0
00000550: 23db f97e 6a4e 7dc0 e926 3108 ac60 6fc0
00000560: 1b2f dd24 06c7 8b40 9a99 9999 9929 9a40
00000570: c3f5 285c 8f88 9840 c3f5 285c 8f68 9840
00000580: 295c 8fc2 f5d2 9a40 8fc2 f528 5c31 9040
00000590: d122 dbf9 7e22 84c0 8941 60e5 d082 8140
000005a0: d7a3 703d 8af9 ac40 9a99 9999 99e3 a740
000005b0: 48e1 7a14 aebb 8f40 52b8 1e85 ebbc 9d40
000005c0: ec51 b81e 8506 aa40 0ad7 a370 3d1a ae40
000005d0: 5c8f c2f5 a8c9 b040 7b14 ae47 e131 ad40
000005e0: cdcc cccc 4c0a a840 7b14 ae47 e12b 9e40
000005f0: 8195 438b 6c16 8640 54e3 a59b c423 86c0
00000600: 3d0a d7a3 7048 84c0 1f85 eb51 b834 9a40
00000610: ae47 e17a 14b6 a540 48e1 7a14 aed4 a340
00000620: cdcc cccc 4cc6 a940 1f85 eb51 b8c8 b140
00000630: 3333 3333 7372 b040 8fc2 f528 5c73 aa40
00000640: ae47 e17a 14f7 b640 a470 3d0a 9784 c040
00000650: 9a99 9999 59bb b940 3d0a d7a3 7094 b240
00000660: 0ad7 a370 3dbe a640 f628 5c8f c243 9e40
00000670: 713d 0ad7 a30f a640 48e1 7a14 2ee0 a740
00000680: ae47 e17a 9491 a240 8fc2 f528 5c0e 9940
00000690: be9f 1a2f dd90 8740 cdcc cccc cc4d 9240
000006a0: 7b14 ae47 e1f2 a140 cdcc cccc cc9a 9540
000006b0: 228e 7571 1ba5 5140 0ad7 a370 3d51 9f40
000006c0: 85eb 51b8 9ee9 b040 5c8f c2f5 283d b240
000006d0: 14ae 47e1 bac6 b440 0ad7 a370 fd8a bd40
000006e0: 14ae 47e1 5a1a c340 0000 0000 0084 c740
000006f0: 3333 3333 3399 c940 9a99 9999 596f c840
00000700: 9a99 9999 5993 c540 9a99 9999 f93d c140
00000710: 5c8f c2f5 c82d c240 0000 0000 0034 c540
00000720: ae47 e17a f4f6 c140 52b8 1e85 aba3 b940
00000730: ec51 b81e 0574 ac40 7b14 ae47 e14f 9740
00000740: 3333 3333 336a 9a40 5c8f c2f5 2820 9c40
00000750: 52b8 1e85 eb6c 9940 3d0a d7a3 70cf 9d40
00000760: 3333 3333 339c a540 c3f5 285c 8fd2 a040
00000770: 3789 4160 e5b4 6540 d34d 6210 5851 5940
00000780: 6666 6666 66d6 9040 85eb 51b8 1e36 a640
00000790: 14ae 47e1 fa83 b240 3333 3333 33b2 b340
000007a0: ec51 b81e 054f b440 a470 3d0a d7f8 b140
000007b0: ae47 e17a 94b8 ac40 14ae 47e1 7a08 9740
000007c0: b29d efa7 c64d 8140 8fc2 f528 5c34 9e40
000007d0: 1f85 eb51 b8b8 9d40 5c8f c2f5 2846 8440
000007e0: b29d efa7 c6bf 8540 85eb 51b8 1e1f 9640
000007f0: b81e 85eb 5174 7d40 60e5 d022 db08 89c0
3325.73 4392.25 4066.73 3058.31 4299.6 3413.09 3490.82 4198.99
3943.46 3068.27 4187.7 5981.96 7522.55 9245.49 8899.62 7994.03
6882.02 5730.77 4908.34 4179.31 2687.45 1021.56 986.372 -260.295
-507.025 -654.438 650.019 1718.45 1159.53 782.244 1361.01 2271.09
4473.19 5663.79 3348.54 2011.41 2425.21 3185.58 4679.88 6181.35
7445.38 8401.1 9122.5 7881.5 4756.6 2409.39 763.423 -123.341
-614.88 -419.015 92.6476 811.043 1609.99 2085.62 2471.92 1704.93
818.35 250.575 -306.392 793.814 1837.72 1782.12 1595.35 532.48
-127.499 561.151 1061.19 957.764 421.049 -1071.0 -1694.46 -894.844
-1059.09 -2423.69 -2245.16 -632.945 782.502 2127.03 2317.57 1920.02
1784.79 1742.92 2155.32 2640.24 3650.58 4721.5 5101.72 5480.65
8277.08 11070.7 10508.9 9734.2 8218.28 6975.62 6412.6 6621.84
8431.37 8599.24 6188.37 3590.57 817.486 69.5403 798.119 399.954
-528.284 -448.616 -45.4218 592.947 1206.49 1331.4 1423.91 1023.04
610.881 -30.9679 -626.705 -967.151 -1000.72 -230.047 97.185 -350.896
-469.523 -93.2232 174.892 334.284 875.134 1678.34 1899.06 1866.18
2457.06 3254.37 2886.4 2424.13 1968.53 1540.54 1836.2 2164.02
2654.48 3877.38 6897.73 8385.22 7501.88 6278.61 4588.39 2736.2
770.618 -823.164 -2279.29 -852.786 1339.27 1790.0 1981.25 2230.35
2457.05 2251.17 1993.11 1437.09 841.615 176.524 -437.626 -943.341
-795.856 126.623 894.244 1398.79 338.692 -1394.09 -928.562 102.045
-176.836 -513.85 -468.901 -251.021 888.878 1674.4 1570.14 1562.14
1716.74 1036.34 -644.312 560.352 3708.77 3057.8 1015.46 1903.23
3331.26 3853.12 4297.66 3736.94 3077.15 1930.97 706.803 -708.471
-649.055 1677.18 2779.04 2538.34 3299.15 4552.72 4210.45 3385.68
5879.08 8457.18 6587.35 4756.44 2911.12 1936.94 2823.82 3056.09
2376.79 1603.59 754.108 1171.45 2297.44 1382.7 70.5798 2004.31
4329.62 4669.16 5318.73 7562.99 9780.71 12040.0 13106.4 12510.7
11046.7 8827.95 9307.57 10856.0 9197.91 6563.67 3642.01 1491.97
1690.55 1800.04 1627.23 1907.86 2766.1 2153.28 173.653 101.271
1077.6 2843.06 4739.98 5042.2 5199.02 4600.84 3676.29 1474.12
553.722 1933.09 1902.18 648.77 695.972 1415.78 471.27 -801.107
