data/npydata/C5-D1.5-W2-P60-N90MJ-2.npy (npy, 187320 bytes, 1 tensors)

array f8 [23399]
0	0x409e12b851eb851f	1924.68
1	0x40b5d6f0a3d70a3d	5590.94
2	0x40b8054ccccccccd	6149.3
3	0x40b34a0000000000	4938.0
4	0x408f6feb851eb852	1005.99
5	0xc07af73f7ced9168	-431.453
6	0xc070407ae147ae14	-260.03
7	0x4080b2bc6a7ef9db	534.342
8	0x4074d795810624dd	333.474
9	0xc073f4f9db22d0e5	-319.311
10	0xc0746cb020c49ba6	-326.793
11	0xc077445604189375	-372.271
12	0x406fa4cccccccccd	253.15
13	0x4094e11eb851eb85	1336.28
14	0x40a901199999999a	3200.55
15	0x40b464b0a3d70a3d	5220.69
16	0x40bacf5eb851eb85	6863.37
17	0x40bd15eb851eb852	7445.92
18	0x40b4cf7333333333	5327.45
19	0x40adf39eb851eb85	3833.81
20	0x40a53eb333333333	2719.35
21	0x4098dc7ae147ae14	1591.12
22	0x408814db22d0e560	770.607
23	0x4094b27ae147ae14	1324.62
24	0x409e93e147ae147b	1956.97
25	0x40a34528f5c28f5c	2466.58
26	0x4099500000000000	1620.0
27	0x4087ed810624dd2f	765.688
28	0xc07fa46666666666	-506.275
29	0xc096461eb851eb85	-1425.53
30	0xc080f0b851eb851f	-542.09
31	0x4061105a1cac0831	136.511
32	0xc07a123126e978d5	-417.137
33	0xc08fa3851eb851ec	-1012.44
34	0xc097b247ae147ae1	-1516.57
35	0xc09b2e0a3d70a3d7	-1739.51
36	0xc096663d70a3d70a	-1433.56
37	0xc08de8c083126e98	-957.094
38	0xc05aa4395810624e	-106.566
39	0x40814e5810624dd3	553.793
40	0x408a13126e978d50	834.384
41	0x408e18d4fdf3b646	963.104
42	0x408d7a28f5c28f5c	943.27
43	0x4092310a3d70a3d7	1164.26
44	0x409947851eb851ec	1617.88
45	0x408b8889374bc6a8	881.067
46	0xc084b3e353f7ced9	-662.486
47	0xc08a7ce353f7ced9	-847.611
48	0xc071e5916872b021	-286.348
49	0xc06139374bc6a7f0	-137.788
50	0xc0657a147ae147ae	-171.815
51	0xc0721683126e978d	-289.407
52	0xc07b54d0e5604189	-437.301
53	0xc02d800000000000	-14.75
54	0x408075b22d0e5604	526.712
55	0x40712e083126e979	274.877
56	0xc0526c44d013a92a	-73.6917
57	0xc073651eb851eb85	-310.32
58	0xc081000c49ba5e35	-544.006
59	0xc082a874bc6a7efa	-597.057
60	0xc0823283126e978d	-582.314
61	0x4084f276c8b43958	670.308
62	0x409c6d6666666666	1819.35
63	0x40942fc28f5c28f6	1291.94
64	0x4091bc999999999a	1135.15
65	0x40a30f051eb851ec	2439.51
66	0x40a9b58000000000	3290.75
67	0x40a546eb851eb852	2723.46
68	0x40a3953333333333	2506.6
69	0x40a79e570a3d70a4	3023.17
70	0x40a4c8dc28f5c28f	2660.43
71	0x408bdea5e353f7cf	891.831
72	0x405c9e5604189375	114.474
73	0x4080863b645a1cac	528.779
74	0x4096f3a3d70a3d71	1468.91
75	0x40a664ae147ae148	2866.34
76	0x40a9a0999999999a	3280.3
77	0x40a794f5c28f5c29	3018.48
78	0x40a9602e147ae148	3248.09
79	0x40ad0eeb851eb852	3719.46
80	0x40a23dae147ae148	2334.84
81	0x40744f4fdf3b645a	324.957
82	0x4073e828f5c28f5c	318.51
83	0x4087673f7ced9168	748.906
84	0x40940ab851eb851f	1282.68
85	0x409c8ae147ae147b	1826.72
86	0x40a6b38a3d70a3d7	2905.77
87	0x40ae956666666666	3914.7
88	0x40b947a666666666	6471.65
89	0x40c214f70a3d70a4	9257.93
90	0x40c5908ccccccccd	11041.1
91	0x40c760cccccccccd	11969.6
92	0x40c069a51eb851ec	8403.29
93	0x40b4c5199999999a	5317.1
94	0x40aa5528f5c28f5c	3370.58
95	0x409b596666666666	1750.35
96	0x4082aff7ced91687	597.996
97	0x4080154fdf3b645a	514.664
98	0x40a079e147ae147b	2108.94
99	0x40ac88c28f5c28f6	3652.38
100	0x40b408b5c28f5c29	5128.71
101	0x40b273e3d70a3d71	4723.89
102	0x40a789c28f5c28f6	3012.88
103	0x409697851eb851ec	1445.88
104	0xc03b7ef9db22d0e5	-27.496
105	0xc03f4978d4fdf3b6	-31.287
106	0x407b5ef1a9fbe76d	437.934
107	0x40831e9ba5e353f8	611.826
108	0x40865cb645a1cac1	715.589
109	0xc0900e6666666666	-1027.6
110	0xc0a8710f5c28f5c3	-3128.53
111	0xc093b63d70a3d70a	-1261.56
112	0x407da56872b020c5	474.338
113	0x4094978f5c28f5c3	1317.89
114	0x409e3651eb851eb8	1933.58
115	0x40966fe147ae147b	1435.97
116	0x4090316666666666	1036.35
117	0x408b356c8b439581	870.678
118	0x4088b28b43958106	790.318
119	0x408ab8a3d70a3d71	855.08
120	0x4093866666666666	1249.6
121	0x40a02f851eb851ec	2071.76
122	0x40a3580f5c28f5c3	2476.03
123	0x40a376b333333333	2491.35
124	0x40979e7ae147ae14	1511.62
125	0xc060b828f5c28f5c	-133.755
126	0xc0698f9db22d0e56	-204.488
127	0x4079a9d2f1a9fbe7	410.614
128	0x40a19d3333333333	2254.6
129	0x40b1be2b851eb852	4542.17
130	0x40a90d70a3d70a3d	3206.72
131	0x40990951eb851eb8	1602.33
132	0x408f045c28f5c28f	992.545
133	0x4075072f1a9fbe77	336.449
134	0xc06d191eb851eb85	-232.785
135	0xc08462f7ced91687	-652.371
136	0xc07aadfbe76c8b44	-426.874
137	0x4065af8d4fdf3b64	173.486
138	0x409a7fa3d70a3d71	1695.91
139	0x40a8d43d70a3d70a	3178.12
140	0x40b21be8f5c28f5c	4635.91
141	0x40b58b6b851eb852	5515.42
142	0x40b6a111eb851eb8	5793.07
143	0x40b43075c28f5c29	5168.46
144	0x40addb0a3d70a3d7	3821.52
145	0x40ac403333333333	3616.1
146	0x40af4f7ae147ae14	4007.74
147	0x40a7cf6b851eb852	3047.71
148	0x409b456666666666	1745.35
149	0x4092af0a3d70a3d7	1195.76
150	0x408800810624dd2f	768.063
151	0x408052c49ba5e354	522.346
152	0x40736378d4fdf3b6	310.217
153	0x4081fa45a1cac083	575.284
154	0x4089bd5810624dd3	823.668
155	0x40908051eb851eb8	1056.08
156	0x40920128f5c28f5c	1152.29
157	0x408bc10e56041893	888.132
158	0x408a6eb439581062	845.838
159	0x4091d6cccccccccd	1141.7
160	0x4094150000000000	1285.25
161	0x4094203333333333	1288.05
162	0x40937f1eb851eb85	1247.78
163	0x4092863d70a3d70a	1185.56
164	0x408b93ac083126e9	882.459
165	0x407cfb0624dd2f1b	463.689
166	0x40839a8f5c28f5c3	627.32
167	0x408d82a1cac08312	944.329
168	0x40a7870000000000	3011.5
169	0x40b354f851eb851f	4948.97
170	0x40b05a147ae147ae	4186.08
171	0x40ab2ecccccccccd	3479.4
172	0x40a64a9eb851eb85	2853.31
173	0x40ab1aa8f5c28f5c	3469.33
174	0x40bd3bc7ae147ae1	7483.78
175	0x40c2c63851eb851f	9612.44
176	0x40c0c983d70a3d71	8595.03
177	0x40bcd711eb851eb8	7383.07
178	0x40b6eba147ae147b	5867.63
179	0x40a9a5a8f5c28f5c	3282.83
180	0x405ef3c6a7ef9db2	123.809
181	0xc07af272b020c49c	-431.153
182	0x402977318fc50481	12.7328
183	0x4090d40a3d70a3d7	1077.01
184	0x40a17d70a3d70a3d	2238.72
185	0x40ae40e147ae147b	3872.44
186	0x40b5a84f5c28f5c3	5544.31
187	0x40b427cccccccccd	5159.8
188	0x40b2d6ab851eb852	4822.67
189	0x40b237fae147ae14	4663.98
190	0x40b2ee5c28f5c28f	4846.36
191	0x40b699199999999a	5785.1
192	0x40b752c28f5c28f6	5970.76
193	0x40b3b3051eb851ec	5043.02
194	0x40ac7be666666666	3645.95
195	0x40a022ae147ae148	2065.34
196	0x40938bf5c28f5c29	1250.99
197	0x408929a9fbe76c8b	805.208
198	0x4090d40a3d70a3d7	1077.01
199	0x4098a9ae147ae148	1578.42
200	0x4093e528f5c28f5c	1273.29
201	0x408d586e978d4fdf	939.054
202	0x4098810000000000	1568.25
203	0x40a02eb851eb851f	2071.36
204	0x409fadae147ae148	2027.42
205	0x40a15e7ae147ae14	2223.24
206	0x40a74d051eb851ec	2982.51
207	0x40a953851eb851ec	3241.76
208	0x40a5f7d70a3d70a4	2811.92
209	0x40a017cccccccccd	2059.9
210	0x408ff0147ae147ae	1022.01
211	0x40857a1a9fbe76c9	687.263
212	0x408682872b020c4a	720.316
213	0x40730378d4fdf3b6	304.217
214	0xc065eec083126e98	-175.461
215	0x403ddc2f837b4a23	29.8601
216	0x40769628f5c28f5c	361.385
217	0x4096193d70a3d70a	1414.31
218	0x40a1c60f5c28f5c3	2275.03
219	0x40a5ae2e147ae148	2775.09
220	0x40b0a1e3d70a3d71	4257.89
221	0x40bfdc9eb851eb85	8156.62
222	0x40c7964ccccccccd	12076.6
223	0x40ce33b333333333	15463.4
224	0x40d3db0ccccccccd	20332.2
225	0x40da0fc666666666	26687.1
226	0x40d59fe666666666	22143.6
227	0x40ca484ccccccccd	13456.6
228	0x40c6aae666666666	11605.8
229	0x40c54e7333333333	10908.9
230	0x40b5c6c51eb851ec	5574.77
231	0x40a0df428f5c28f6	2159.63
232	0x40bac0f851eb851f	6848.97
233	0x40c1f62147ae147b	9196.26
234	0x40b07b63d70a3d71	4219.39
235	0x40937451eb851eb8	1245.08
236	0x409370d70a3d70a4	1244.21
237	0x4088b4083126e979	790.504
238	0xc060c1a9fbe76c8b	-134.052
239	0xc0777ce978d4fdf4	-375.807
240	0xc06e995810624dd3	-244.792
241	0xc06f21e353f7ced9	-249.059
242	0xc071c73b645a1cac	-284.452
243	0xc0707672b020c49c	-263.403
244	0xc0783d999999999a	-387.85
245	0xc09d50e147ae147b	-1876.22
246	0xc0a2cb2e147ae148	-2405.59
247	0x4061820c49ba5e35	140.064
248	0x4095bbc28f5c28f6	1390.94
249	0x406ecdb22d0e5604	246.428
250	0xc040ab0f27bb2fec	-33.3364
251	0x4078ec76c8b43958	398.779
252	0x404278d844d013a9	36.9441
253	0xc086dc78d4fdf3b6	-731.559
254	0x4069f2c8b4395810	207.587
255	0x4097327ae147ae14	1484.62
