data/npydata/C7-D1.5-W2-P60-N90MJ-4.npy (npy, 187320 bytes, 1 tensors)

array f8 [23399]
000000 66 66 66 66 a6 7c b3 40 a4 70 3d 0a 57 5d b1 40
       4988.65 4445.34
000010 ec 51 b8 1e 85 41 ad 40 c3 f5 28 5c 0f 2b a8 40
       3744.76 3093.53
000020 0a d7 a3 70 3d e3 92 40 19 04 56 0e 2d d6 84 40
       1208.81 666.772
000030 87 16 d9 ce f7 19 82 40 6f 12 83 c0 ca dc 82 40
       579.246 603.599
000040 ae 47 e1 7a 14 ed 93 40 85 eb 51 b8 1e 29 a2 40
       1275.27 2324.56
000050 5c 8f c2 f5 28 49 94 40 31 08 ac 1c 5a 24 60 40
       1298.29 129.136
000060 7b 14 ae 47 61 f8 a7 40 d7 a3 70 3d 4a 63 b9 40
       3068.19 6499.29
000070 cd cc cc cc 8c 19 c1 40 cd cc cc cc 0c f5 c5 40
       8755.1 11242.1
000080 33 33 33 33 33 bc c6 40 33 33 33 33 f3 b4 c5 40
       11640.4 11113.9
000090 9a 99 99 99 19 bf c1 40 8f c2 f5 28 9c 68 bc 40
       9086.2 7272.61
0000a0 00 00 00 00 00 23 b4 40 0a d7 a3 70 3d 91 a3 40
       5155.0 2504.62
0000b0 4a 0c 02 2b 87 46 8b 40 5c 8f c2 f5 28 4c 6c c0
       872.816 -226.38
0000c0 fe d4 78 e9 26 4e 84 c0 7d 3f 35 5e ba 10 8d c0
       -649.769 -930.091
0000d0 bc 74 93 18 04 b1 88 40 9a 99 99 99 19 65 a2 40
       790.127 2354.55
0000e0 1f 85 eb 51 b8 f9 a8 40 1f 85 eb 51 b8 ef ab 40
       3196.86 3575.86
0000f0 14 ae 47 e1 7a 11 95 40 2f dd 24 06 81 8f 87 c0
       1348.37 -753.938
000100 ec 51 b8 1e 85 a7 97 c0 71 3d 0a d7 a3 ef 9c c0
       -1513.88 -1851.91
000110 98 6e 12 83 c0 8c 88 c0 85 eb 51 b8 1e 09 77 c0
       -785.594 -368.57
000120 33 33 33 33 33 91 92 c0 3d 0a d7 a3 70 25 93 c0
       -1188.3 -1225.36
000130 75 93 18 04 56 96 65 40 a8 c6 4b 37 89 2e 83 40
       172.698 613.817
000140 42 60 e5 d0 22 cd 77 c0 f4 fd d4 78 e9 6c 82 c0
       -380.821 -589.614
000150 d9 5f 76 4f 1e 16 2d 40 60 e5 d0 22 db 19 5f c0
       14.5432 -124.404
000160 8f c2 f5 28 5c 4e 8e c0 14 ae 47 e1 7a c6 98 c0
       -969.795 -1585.62
000170 f6 28 5c 8f c2 3c 9f c0 c3 f5 28 5c 8f ba 99 c0
       -1999.19 -1646.64
000180 37 89 41 60 e5 e2 8a c0 79 e9 26 31 08 19 8a c0
       -860.362 -835.129
000190 9a 99 99 99 99 04 92 c0 9a 99 99 99 99 99 9f c0
       -1153.15 -2022.4
0001a0 d7 a3 70 3d 8a 29 a8 c0 5c 8f c2 f5 a8 b2 a4 c0
       -3092.77 -2649.33
0001b0 33 33 33 33 33 36 9d c0 3d 0a d7 a3 70 54 99 c0
       -1869.55 -1621.11
0001c0 66 66 66 66 66 cd 96 c0 9e ef a7 c6 4b 1b 64 c0
       -1459.35 -160.853
0001d0 a4 70 3d 0a d7 90 93 40 9a 99 99 99 99 dd 9a 40
       1252.21 1719.4
0001e0 52 b8 1e 85 eb 92 a1 40 7b 14 ae 47 e1 77 b0 40
       2249.46 4215.88
0001f0 3d 0a d7 a3 f0 c9 b6 40 3d 0a d7 a3 70 7f ab 40
       5833.94 3519.72
000200 8f c2 f5 28 5c 41 9a 40 6a bc 74 93 18 76 8c 40
       1680.34 910.762
000210 9c c4 20 b0 72 fa 70 40 96 21 8e 75 71 07 53 40
       271.653 76.1163
000220 6a bc 74 93 18 a4 6c c0 f6 28 5c 8f c2 93 88 c0
       -229.128 -786.47
000230 66 66 66 66 66 cf 83 c0 c9 76 be 9f 1a 94 84 40
       -633.925 658.513
000240 a6 9b c4 20 b0 e9 83 40 52 b8 1e 85 eb 97 8f c0
       637.211 -1010.99
000250 e3 a5 9b c4 20 b9 88 c0 48 e1 7a 14 ae 30 92 40
       -791.141 1164.17
000260 29 5c 8f c2 f5 d8 95 40 31 08 ac 1c 5a 9e 7a 40
       1398.24 425.897
000270 a8 c6 4b 37 89 35 52 40 0c 02 2b 87 16 31 45 40
       72.8365 42.3835
000280 85 eb 51 b8 1e 59 98 40 66 66 66 66 66 0b ac 40
       1558.28 3589.7
000290 f6 28 5c 8f 42 b9 ad 40 85 eb 51 b8 1e 34 ac 40
       3804.63 3610.06
0002a0 0a d7 a3 70 bd 42 ab 40 29 5c 8f c2 f5 64 aa 40
       3489.37 3378.48
0002b0 7b 14 ae 47 61 5f b1 40 9a 99 99 99 d9 75 b5 40
       4447.38 5493.85
0002c0 48 e1 7a 14 2e 30 c1 40 9a 99 99 99 99 80 c7 40
       8800.36 12033.2
0002d0 cd cc cc cc 4c d8 c4 40 66 66 66 66 e6 e1 c1 40
       10672.6 9155.8
0002e0 29 5c 8f c2 f5 1b bd 40 1f 85 eb 51 78 ae b6 40
       7451.96 5806.47
0002f0 c3 f5 28 5c 0f 7f b0 40 a4 70 3d 0a d7 d5 a9 40
       4223.06 3306.92
000300 c3 f5 28 5c 8f 6f ac 40 a4 70 3d 0a d7 9e ac 40
       3639.78 3663.42
000310 ae 47 e1 7a 94 03 a9 40 3d 0a d7 a3 70 0f a5 40
       3201.79 2695.72
000320 c3 f5 28 5c 0f c6 a0 40 14 ae 47 e1 fa a9 a2 40
       2147.03 2388.99
000330 a4 70 3d 0a 57 cf a8 40 d7 a3 70 3d 8a 76 a1 40
       3175.67 2235.27
000340 d1 22 db f9 7e 7a 7e 40 39 b4 c8 76 be c1 79 40
       487.656 412.109
000350 85 eb 51 b8 1e 5c 8b 40 48 e1 7a 14 ae 36 8d 40
       875.515 934.835
000360 a2 45 b6 f3 fd a5 8c 40 f6 28 5c 8f c2 07 9a 40
       916.749 1665.94
000370 ec 51 b8 1e 05 0a a4 40 66 66 66 66 66 3b 91 40
       2565.01 1102.85
000380 24 0b 98 c0 ad db 14 40 3d 0a d7 a3 70 c7 a2 40
       5.21453 2403.72
000390 ec 51 b8 1e 05 02 af 40 71 3d 0a d7 a3 8b 97 40
       3969.01 1506.91
0003a0 e5 f2 1f d2 6f c7 40 c0 f2 d2 4d 62 10 a6 87 40
       -33.5581 756.758
0003b0 52 b8 1e 85 eb f5 95 40 48 e1 7a 14 ae 34 9e 40
       1405.48 1933.17
0003c0 9a 99 99 99 99 dc a4 40 71 3d 0a d7 a3 3d ac 40
       2670.3 3614.82
0003d0 8f c2 f5 28 5c d0 a8 40 85 eb 51 b8 1e 05 98 40
       3176.18 1537.28
0003e0 6a bc 74 93 18 1c 86 40 2f dd 24 06 81 c7 75 40
       707.512 348.469
0003f0 87 16 d9 ce f7 a4 81 40 9a 99 99 99 99 1d 90 40
       564.621 1031.4
000400 9a 99 99 99 99 be 91 40 29 5c 8f c2 f5 e0 91 40
       1135.65 1144.24
000410 8d 97 6e 12 83 32 88 40 08 ac 1c 5a 64 57 79 40
       774.314 405.462
000420 56 0e 2d b2 9d 79 83 40 08 ac 1c 5a 64 a3 8c 40
       623.202 916.424
000430 cd cc cc cc cc 0d 9b 40 9a 99 99 99 19 9f a2 40
       1731.45 2383.55
000440 c3 f5 28 5c 0f 51 a2 40 c3 f5 28 5c 0f 84 a1 40
       2344.53 2242.03
000450 71 3d 0a d7 a3 fd 9e 40 ae 47 e1 7a 14 77 9d 40
       1983.41 1885.77
000460 9a 99 99 99 99 da 9f 40 85 eb 51 b8 1e 7a a0 40
       2038.65 2109.06
000470 ae 47 e1 7a 14 54 a0 40 ae 47 e1 7a 14 99 99 40
       2090.04 1638.27
000480 98 6e 12 83 c0 4b 8a 40 71 3d 0a d7 23 3a a1 40
       841.469 2205.07
000490 a4 70 3d 0a d7 9b b2 40 ae 47 e1 7a d4 a2 b3 40
       4763.84 5026.83
0004a0 85 eb 51 b8 1e f8 b1 40 3d 0a d7 a3 30 c9 b3 40
       4600.12 5065.19
0004b0 c3 f5 28 5c 0f 0c b6 40 1f 85 eb 51 78 2a ba 40
       5644.06 6698.47
0004c0 ae 47 e1 7a 14 f0 bd 40 8f c2 f5 28 9c 81 ba 40
       7664.08 6785.61
0004d0 ae 47 e1 7a 94 f1 b7 40 ae 47 e1 7a 14 b3 b8 40
       6129.58 6323.08
0004e0 66 66 66 66 66 d6 b6 40 b8 1e 85 eb 51 83 ac 40
       5846.4 3649.66
0004f0 cd cc cc cc cc 54 a0 40 29 5c 8f c2 f5 9f 98 40
       2090.4 1575.99
000500 b8 1e 85 eb 51 a2 9f 40 a4 70 3d 0a 57 a7 ac 40
       2024.58 3667.67
000510 66 66 66 66 e6 9b ab 40 33 33 33 33 33 15 a1 40
       3533.95 2186.6
000520 71 3d 0a d7 a3 d6 9e 40 7b 14 ae 47 e1 e6 a0 40
       1973.66 2163.44
000530 1f 85 eb 51 b8 9a 77 40 3d 0a d7 a3 70 e1 9f c0
       377.67 -2040.36
000540 7f 6a bc 74 93 20 60 c0 8f c2 f5 28 5c 3f 9e 40
       -129.018 1935.84
000550 85 eb 51 b8 9e 01 a9 40 a4 70 3d 0a 57 71 af 40
       3200.81 4024.67
000560 a4 70 3d 0a 57 8b a6 40 ec 51 b8 1e 85 a3 a0 40
       2885.67 2129.76
000570 00 00 00 00 00 4f a2 40 5c 8f c2 f5 28 af 99 40
       2343.5 1643.79
000580 66 66 66 66 66 32 83 c0 f6 28 5c 8f c2 c9 92 c0
       -614.3 -1202.44
000590 10 7a 36 ab 3e df 53 40 81 95 43 8b 6c 5e 8a 40
       79.4882 843.803
0005a0 ec 51 b8 1e 85 a1 92 40 5e ba 49 0c 02 ad 76 40
       1192.38 362.813
0005b0 6f 12 83 c0 ca 2e 8b c0 a4 70 3d 0a d7 af 8b 40
       -869.849 885.98
0005c0 0a d7 a3 70 bd d0 a8 40 85 eb 51 b8 9e 06 a5 40
       3176.37 2691.31
0005d0 00 00 00 00 00 c4 9f 40 9a 99 99 99 19 1e a0 40
       2033.0 2063.05
0005e0 5c 8f c2 f5 a8 7f a1 40 71 3d 0a d7 23 fd a7 40
       2239.83 3070.57
0005f0 00 00 00 00 00 a1 ac 40 9a 99 99 99 99 40 ad 40
       3664.5 3744.3
000600 a4 70 3d 0a d7 a8 ae 40 d7 a3 70 3d ca c6 b0 40
       3924.42 4294.79
000610 52 b8 1e 85 6b 34 a7 40 4e 62 10 58 39 1c 73 40
       2970.21 305.764
000620 79 e9 26 31 08 0c 6c 40 85 eb 51 b8 1e e6 95 40
       224.376 1401.53
000630 00 00 00 00 00 eb 8c 40 60 76 4f 1e 16 da 4f c0
       925.375 -63.7038
000640 ec 51 b8 1e 85 05 8e 40 0a d7 a3 70 3d b0 a0 40
       960.69 2136.12
000650 85 eb 51 b8 1e 7f a5 40 00 00 00 00 80 43 a9 40
       2751.56 3233.75
000660 48 e1 7a 14 ae 78 a8 40 a4 70 3d 0a d7 88 a8 40
       3132.34 3140.42
000670 5c 8f c2 f5 a8 89 aa 40 f6 28 5c 8f c2 37 ac 40
       3396.83 3611.88
000680 66 66 66 66 e6 95 ad 40 1f 85 eb 51 b8 16 b4 40
       3786.95 5142.72
000690 5c 8f c2 f5 e8 8b bd 40 0a d7 a3 70 7d 38 bf 40
       7563.91 7992.49
0006a0 85 eb 51 b8 5e bb bc 40 1f 85 eb 51 f8 c8 b9 40
       7355.37 6600.97
0006b0 14 ae 47 e1 ba 0d b7 40 c3 f5 28 5c 4f 04 b8 40
       5901.73 6148.31
0006c0 e1 7a 14 ae 07 d8 b9 40 1f 85 eb 51 f8 7c c1 40
       6616.03 8953.94
0006d0 33 33 33 33 f3 15 c7 40 00 00 00 00 20 d9 d1 40
       11819.9 18276.5
0006e0 9a 99 99 99 59 7c d7 40 00 00 00 00 e0 cb db 40
       24049.4 28463.5
0006f0 33 33 33 33 13 85 dc 40 00 00 00 00 a0 99 d8 40
       29204.3 25190.5
000700 cd cc cc cc 6c ba d3 40 cd cc cc cc 8c 83 cb 40
       20201.7 14087.1
000710 33 33 33 33 33 27 c7 40 cd cc cc cc cc 2c c6 40
       11854.4 11353.6
000720 33 33 33 33 33 ba c4 40 52 b8 1e 85 eb ed c2 40
       10612.4 9691.84
000730 66 66 66 66 c6 22 c2 40 5c 8f c2 f5 28 e5 c0 40
       9285.55 8650.32
000740 85 eb 51 b8 de 1b b7 40 3d 0a d7 a3 70 a0 a9 40
       5915.87 3280.22
000750 a4 70 3d 0a d7 23 96 40 91 ed 7c 3f 35 05 8b 40
       1416.96 864.651
000760 ec 51 b8 1e 05 8e a0 40 8f c2 f5 28 5c 34 a6 40
       2119.01 2842.18
000770 b8 1e 85 eb d1 64 a9 40 d7 a3 70 3d 8a 15 b1 40
       3250.41 4373.54
000780 0a d7 a3 70 fd 0f b7 40 00 00 00 00 40 46 b5 40
       5903.99 5446.25
000790 3d 0a d7 a3 70 be b1 40 cd cc cc cc cc 31 a9 40
       4542.44 3224.9
0007a0 d7 a3 70 3d 0a 46 9e 40 cd cc cc cc cc 17 9b 40
       1937.51 1733.95
0007b0 8f c2 f5 28 5c d4 9e 40 c3 f5 28 5c 0f 2a ad 40
       1973.09 3733.03
0007c0 cd cc cc cc 4c d7 b1 40 c3 f5 28 5c 0f ed ac 40
       4567.3 3702.53
0007d0 33 33 33 33 b3 9a aa 40 1f 85 eb 51 38 d2 ab 40
       3405.35 3561.11
0007e0 00 00 00 00 00 96 a8 40 85 eb 51 b8 9e 15 a3 40
       3147.0 2442.81
0007f0 5c 8f c2 f5 28 57 99 40 1d 5a 64 3b df 77 89 40
       1621.79 814.984
